…
ase_seed': 1230, 'number_of_model_classes': 10, 'regularization_type': None, 'regularization_value': 0, 'experiment_path': 'artifacts/cifar10/squeezemobnet_/baseline', 'execution': 1, 'execution_seed': 1231, 'number_of_dataset_classes': 10, 'execution_path': 'artifacts/cifar10/squeezemobnet_/baseline/exec1'}

$$$$$$$$$$$$$$$$$$$$$$$$$$$$$$$$$$$$$$$$$$$$$$$$$$$
TRAINSET LOADER SIZE: ====>>>>  50000
VALIDSET LOADER SIZE: ====>>>>  10000
$$$$$$$$$$$$$$$$$$$$$$$$$$$$$$$$$$$$$$$$$$$$$$$$$$$

DATASET: cifar10
=> creating model 'squeezemobnet_'

MODEL: SqueezeMobNet_(
  (features): Sequential(
    (0): Conv2d(3, 96, kernel_size=(3, 3), stride=(1, 1), padding=(1, 1))
    (1): ReLU(inplace)
    (2): MaxPool2d(kernel_size=2, stride=2, padding=0, dilation=1, ceil_mode=True)
    (3): Fire_(
      (group1): Sequential(
        (squeeze): Conv2d(96, 32, kernel_size=(1, 1), stride=(1, 1))
        (BatchNorm): BatchNorm2d(32, eps=1e-05, momentum=0.1, affine=True, track_running_stats=True)
        (squeeze_activation): ReLU(inplace)
      )
      (group2): Sequential(
        (expand1x1): Conv2d(32, 64, kernel_size=(1, 1), stride=(1, 1))
        (BatchNorm): BatchNorm2d(64, eps=1e-05, momentum=0.1, affine=True, track_running_stats=True)
        (expand1x1_activation): ReLU(inplace)
      )
      (group3): Sequential(
        (expand3x3): Block_(
          (mob): Sequential(
            (pointwise): Conv2d(32, 32, kernel_size=(3, 3), stride=(1, 1), padding=(1, 1), groups=32, bias=False)
            (activation): ReLU(inplace)
            (depthwise): Conv2d(32, 64, kernel_size=(1, 1), stride=(1, 1), bias=False)
            (BatchNorm): BatchNorm2d(64, eps=1e-05, momentum=0.1, affine=True, track_running_stats=True)
          )
        )
      )
    )
    (4): Fire_(
      (group1): Sequential(
        (squeeze): Conv2d(128, 16, kernel_size=(1, 1), stride=(1, 1))
        (BatchNorm): BatchNorm2d(16, eps=1e-05, momentum=0.1, affine=True, track_running_stats=True)
        (squeeze_activation): ReLU(inplace)
      )
      (group2): Sequential(
        (expand1x1): Conv2d(16, 64, kernel_size=(1, 1), stride=(1, 1))
        (BatchNorm): BatchNorm2d(64, eps=1e-05, momentum=0.1, affine=True, track_running_stats=True)
        (expand1x1_activation): ReLU(inplace)
      )
      (group3): Sequential(
        (expand3x3): Block_(
          (mob): Sequential(
            (pointwise): Conv2d(16, 16, kernel_size=(3, 3), stride=(1, 1), padding=(1, 1), groups=16, bias=False)
            (activation): ReLU(inplace)
            (depthwise): Conv2d(16, 64, kernel_size=(1, 1), stride=(1, 1), bias=False)
            (BatchNorm): BatchNorm2d(64, eps=1e-05, momentum=0.1, affine=True, track_running_stats=True)
          )
        )
      )
    )
    (5): Fire_(
      (group1): Sequential(
        (squeeze): Conv2d(128, 32, kernel_size=(1, 1), stride=(1, 1))
        (BatchNorm): BatchNorm2d(32, eps=1e-05, momentum=0.1, affine=True, track_running_stats=True)
        (squeeze_activation): ReLU(inplace)
      )
      (group2): Sequential(
        (expand1x1): Conv2d(32, 128, kernel_size=(1, 1), stride=(1, 1))
        (BatchNorm): BatchNorm2d(128, eps=1e-05, momentum=0.1, affine=True, track_running_stats=True)
        (expand1x1_activation): ReLU(inplace)
      )
      (group3): Sequential(
        (expand3x3): Block_(
          (mob): Sequential(
            (pointwise): Conv2d(32, 32, kernel_size=(3, 3), stride=(1, 1), padding=(1, 1), groups=32, bias=False)
            (activation): ReLU(inplace)
            (depthwise): Conv2d(32, 128, kernel_size=(1, 1), stride=(1, 1), bias=False)
            (BatchNorm): BatchNorm2d(128, eps=1e-05, momentum=0.1, affine=True, track_running_stats=True)
          )
        )
      )
    )
    (6): Fire_(
      (group1): Sequential(
        (squeeze): Conv2d(256, 32, kernel_size=(1, 1), stride=(1, 1))
        (BatchNorm): BatchNorm2d(32, eps=1e-05, momentum=0.1, affine=True, track_running_stats=True)
        (squeeze_activation): ReLU(inplace)
      )
      (group2): Sequential(
        (expand1x1): Conv2d(32, 128, kernel_size=(1, 1), stride=(1, 1))
        (BatchNorm): BatchNorm2d(128, eps=1e-05, momentum=0.1, affine=True, track_running_stats=True)
        (expand1x1_activation): ReLU(inplace)
      )
      (group3): Sequential(
        (expand3x3): Block_(
          (mob): Sequential(
            (pointwise): Conv2d(32, 32, kernel_size=(3, 3), stride=(1, 1), padding=(1, 1), groups=32, bias=False)
            (activation): ReLU(inplace)
            (depthwise): Conv2d(32, 128, kernel_size=(1, 1), stride=(1, 1), bias=False)
            (BatchNorm): BatchNorm2d(128, eps=1e-05, momentum=0.1, affine=True, track_running_stats=True)
          )
        )
      )
    )
    (7): MaxPool2d(kernel_size=2, stride=2, padding=0, dilation=1, ceil_mode=True)
    (8): Fire_(
      (group1): Sequential(
        (squeeze): Conv2d(256, 48, kernel_size=(1, 1), stride=(1, 1))
        (BatchNorm): BatchNorm2d(48, eps=1e-05, momentum=0.1, affine=True, track_running_stats=True)
        (squeeze_activation): ReLU(inplace)
      )
      (group2): Sequential(
        (expand1x1): Conv2d(48, 192, kernel_size=(1, 1), stride=(1, 1))
        (BatchNorm): BatchNorm2d(192, eps=1e-05, momentum=0.1, affine=True, track_running_stats=True)
        (expand1x1_activation): ReLU(inplace)
      )
      (group3): Sequential(
        (expand3x3): Block_(
          (mob): Sequential(
            (pointwise): Conv2d(48, 48, kernel_size=(3, 3), stride=(1, 1), padding=(1, 1), groups=48, bias=False)
            (activation): ReLU(inplace)
            (depthwise): Conv2d(48, 192, kernel_size=(1, 1), stride=(1, 1), bias=False)
            (BatchNorm): BatchNorm2d(192, eps=1e-05, momentum=0.1, affine=True, track_running_stats=True)
          )
        )
      )
    )
    (9): Fire_(
      (group1): Sequential(
        (squeeze): Conv2d(384, 48, kernel_size=(1, 1), stride=(1, 1))
        (BatchNorm): BatchNorm2d(48, eps=1e-05, momentum=0.1, affine=True, track_running_stats=True)
        (squeeze_activation): ReLU(inplace)
      )
      (group2): Sequential(
        (expand1x1): Conv2d(48, 192, kernel_size=(1, 1), stride=(1, 1))
        (BatchNorm): BatchNorm2d(192, eps=1e-05, momentum=0.1, affine=True, track_running_stats=True)
        (expand1x1_activation): ReLU(inplace)
      )
      (group3): Sequential(
        (expand3x3): Block_(
          (mob): Sequential(
            (pointwise): Conv2d(48, 48, kernel_size=(3, 3), stride=(1, 1), padding=(1, 1), groups=48, bias=False)
            (activation): ReLU(inplace)
            (depthwise): Conv2d(48, 192, kernel_size=(1, 1), stride=(1, 1), bias=False)
            (BatchNorm): BatchNorm2d(192, eps=1e-05, momentum=0.1, affine=True, track_running_stats=True)
          )
        )
      )
    )
    (10): Fire_(
      (group1): Sequential(
        (squeeze): Conv2d(384, 64, kernel_size=(1, 1), stride=(1, 1))
        (BatchNorm): BatchNorm2d(64, eps=1e-05, momentum=0.1, affine=True, track_running_stats=True)
        (squeeze_activation): ReLU(inplace)
      )
      (group2): Sequential(
        (expand1x1): Conv2d(64, 256, kernel_size=(1, 1), stride=(1, 1))
        (BatchNorm): BatchNorm2d(256, eps=1e-05, momentum=0.1, affine=True, track_running_stats=True)
        (expand1x1_activation): ReLU(inplace)
      )
      (group3): Sequential(
        (expand3x3): Block_(
          (mob): Sequential(
            (pointwise): Conv2d(64, 64, kernel_size=(3, 3), stride=(1, 1), padding=(1, 1), groups=64, bias=False)
            (activation): ReLU(inplace)
            (depthwise): Conv2d(64, 256, kernel_size=(1, 1), stride=(1, 1), bias=False)
            (BatchNorm): BatchNorm2d(256, eps=1e-05, momentum=0.1, affine=True, track_running_stats=True)
          )
        )
      )
    )
    (11): MaxPool2d(kernel_size=2, stride=2, padding=0, dilation=1, ceil_mode=True)
    (12): Fire_(
      (group1): Sequential(
        (squeeze): Conv2d(512, 64, kernel_size=(1, 1), stride=(1, 1))
        (BatchNorm): BatchNorm2d(64, eps=1e-05, momentum=0.1, affine=True, track_running_stats=True)
        (squeeze_activation): ReLU(inplace)
      )
      (group2): Sequential(
        (expand1x1): Conv2d(64, 256, kernel_size=(1, 1), stride=(1, 1))
        (BatchNorm): BatchNorm2d(256, eps=1e-05, momentum=0.1, affine=True, track_running_stats=True)
        (expand1x1_activation): ReLU(inplace)
      )
      (group3): Sequential(
        (expand3x3): Block_(
          (mob): Sequential(
            (pointwise): Conv2d(64, 64, kernel_size=(3, 3), stride=(1, 1), padding=(1, 1), groups=64, bias=False)
            (activation): ReLU(inplace)
            (depthwise): Conv2d(64, 256, kernel_size=(1, 1), stride=(1, 1), bias=False)
            (BatchNorm): BatchNorm2d(256, eps=1e-05, momentum=0.1, affine=True, track_running_stats=True)
          )
        )
      )
    )
  )
  (classifier): Sequential(
    (0): Conv2d(512, 10, kernel_size=(1, 1), stride=(1, 1))
    (1): BatchNorm2d(10, eps=1e-05, momentum=0.1, affine=True, track_running_stats=True)
    (2): ReLU(inplace)
    (3): AvgPool2d(kernel_size=4, stride=4, padding=0)
  )
)

################ TRAINING ################

######## EPOCH: 1 OF 100 ########

LEARNING RATE:	 0.1
Train Epoch: [1][16/391]	Data 0.000882	Time 0.036189	Loss 2.2128	Entropy 2.2648		Acc1 16.99	Acc5 70.90
Train Epoch: [1][32/391]	Data 0.000899	Time 0.036098	Loss 2.1174	Entropy 2.2180		Acc1 21.90	Acc5 76.10
…
Valid Epoch: [100][32/79]	Data 0.000785	Time 0.012561	Entropy 0.3061		Acc1 88.65	Acc5 99.58
Valid Epoch: [100][48/79]	Data 0.000811	Time 0.012609	Entropy 0.3033		Acc1 89.05	Acc5 99.59
Valid Epoch: [100][64/79]	Data 0.000807	Time 0.012597	Entropy 0.3056		Acc1 88.68	Acc5 99.61

CONFUSION:
 [[… #### VALID: 88.850

!$$$$ BEST: 89.020


################ COMPUTING INFERENCE TIMES AND MODEL WEIGHTS, BIAS AND PARAMETERS ################

COMPUTING INFERENCE TIME: CPU

COMPUTING INFERENCE TIME: GPU

MEAN CPU INFERENCE TIME (MILISECONDS):	6.4937
MEAN GPU INFERENCE TIME (MILISECONDS):	1.7159

NUMBER OF WEIGHTS, BIAS AND PARAMETERS:
SqueezeMobNet_ (
  (features): Sequential (
    (0): Conv2d(3, 96, kernel_size=(3, 3), stride=(1, 1), padding=(1, 1)), weights=((96, 3, 3, 3), (96,)), parameters=2688
    (1): ReLU(inplace), weights=(), parameters=0
    (2): MaxPool2d(kernel_size=2, stride=2, padding=0, dilation=1, ceil_mode=True), weights=(), parameters=0
    (3): Fire_(
      (group1): Sequential(
        (squeeze): Conv2d(96, 32, kernel_size=(1, 1), stride=(1, 1))
        (BatchNorm): BatchNorm2d(32, eps=1e-05, momentum=0.1, affine=True, track_running_stats=True)
        (squeeze_activation): ReLU(inplace)
      )
      (group2): Sequential(
        (expand1x1): Conv2d(32, 64, kernel_size=(1, 1), stride=(1, 1))
        (BatchNorm): BatchNorm2d(64, eps=1e-05, momentum=0.1, affine=True, track_running_stats=True)
        (expand1x1_activation): ReLU(inplace)
      )
      (group3): Sequential(
        (expand3x3): Block_(
          (mob): Sequential(
            (pointwise): Conv2d(32, 32, kernel_size=(3, 3), stride=(1, 1), padding=(1, 1), groups=32, bias=False)
            (activation): ReLU(inplace)
            (depthwise): Conv2d(32, 64, kernel_size=(1, 1), stride=(1, 1), bias=False)
            (BatchNorm): BatchNorm2d(64, eps=1e-05, momentum=0.1, affine=True, track_running_stats=True)
          )
        )
      )
    ), weights=((32, 96, 1, 1), (32,), (32,), (32,), (64, 32, 1, 1), (64,), (64,), (64,), (32, 1, 3, 3), (64, 32, 1, 1), (64,), (64,)), parameters=7872
    (4): Fire_(
      (group1): Sequential(
        (squeeze): Conv2d(128, 16, kernel_size=(1, 1), stride=(1, 1))
        (BatchNorm): BatchNorm2d(16, eps=1e-05, momentum=0.1, affine=True, track_running_stats=True)
        (squeeze_activation): ReLU(inplace)
      )
      (group2): Sequential(
        (expand1x1): Conv2d(16, 64, kernel_size=(1, 1), stride=(1, 1))
        (BatchNorm): BatchNorm2d(64, eps=1e-05, momentum=0.1, affine=True, track_running_stats=True)
        (expand1x1_activation): ReLU(inplace)
      )
      (group3): Sequential(
        (expand3x3): Block_(
          (mob): Sequential(
            (pointwise): Conv2d(16, 16, kernel_size=(3, 3), stride=(1, 1), padding=(1, 1), groups=16, bias=False)
            (activation): ReLU(inplace)
            (depthwise): Conv2d(16, 64, kernel_size=(1, 1), stride=(1, 1), bias=False)
            (BatchNorm): BatchNorm2d(64, eps=1e-05, momentum=0.1, affine=True, track_running_stats=True)
          )
        )
      )
    ), weights=((16, 128, 1, 1), (16,), (16,), (16,), (64, 16, 1, 1), (64,), (64,), (64,), (16, 1, 3, 3), (64, 16, 1, 1), (64,), (64,)), parameters=4608
    (5): Fire_(
      (group1): Sequential(
        (squeeze): Conv2d(128, 32, kernel_size=(1, 1), stride=(1, 1))
        (BatchNorm): BatchNorm2d(32, eps=1e-05, momentum=0.1, affine=True, track_running_stats=True)
        (squeeze_activation): ReLU(inplace)
      )
      (group2): Sequential(
        (expand1x1): Conv2d(32, 128, kernel_size=(1, 1), stride=(1, 1))
        (BatchNorm): BatchNorm2d(128, eps=1e-05, momentum=0.1, affine=True, track_running_stats=True)
        (expand1x1_activation): ReLU(inplace)
      )
      (group3): Sequential(
        (expand3x3): Block_(
          (mob): Sequential(
            (pointwise): Conv2d(32, 32, kernel_size=(3, 3), stride=(1, 1), padding=(1, 1), groups=32, bias=False)
            (activation): ReLU(inplace)
            (depthwise): Conv2d(32, 128, kernel_size=(1, 1), stride=(1, 1), bias=False)
            (BatchNorm): BatchNorm2d(128, eps=1e-05, momentum=0.1, affine=True, track_running_stats=True)
          )
        )
      )
    ), weights=((32, 128, 1, 1), (32,), (32,), (32,), (128, 32, 1, 1), (128,), (128,), (128,), (32, 1, 3, 3), (128, 32, 1, 1), (128,), (128,)), parameters=13312
    (6): Fire_(
      (group1): Sequential(
        (squeeze): Conv2d(256, 32, kernel_size=(1, 1), stride=(1, 1))
        (BatchNorm): BatchNorm2d(32, eps=1e-05, momentum=0.1, affine=True, track_running_stats=True)
        (squeeze_activation): ReLU(inplace)
      )
      (group2): Sequential(
        (expand1x1): Conv2d(32, 128, kernel_size=(1, 1), stride=(1, 1))
        (BatchNorm): BatchNorm2d(128, eps=1e-05, momentum=0.1, affine=True, track_running_stats=True)
        (expand1x1_activation): ReLU(inplace)
      )
      (group3): Sequential(
        (expand3x3): Block_(
          (mob): Sequential(
            (pointwise): Conv2d(32, 32, kernel_size=(3, 3), stride=(1, 1), padding=(1, 1), groups=32, bias=False)
            (activation): ReLU(inplace)
            (depthwise): Conv2d(32, 128, kernel_size=(1, 1), stride=(1, 1), bias=False)
            (BatchNorm): BatchNorm2d(128, eps=1e-05, momentum=0.1, affine=True, track_running_stats=True)
          )
        )
      )
    ), weights=((32, 256, 1, 1), (32,), (32,), (32,), (128, 32, 1, 1), (128,), (128,), (128,), (32, 1, 3, 3), (128, 32, 1, 1), (128,), (128,)), parameters=17408
    (7): MaxPool2d(kernel_size=2, stride=2, padding=0, dilation=1, ceil_mode=True), weights=(), parameters=0
    (8): Fire_(
      (group1): Sequential(
        (squeeze): Conv2d(256, 48, kernel_size=(1, 1), stride=(1, 1))
        (BatchNorm): BatchNorm2d(48, eps=1e-05, momentum=0.1, affine=True, track_running_stats=True)
        (squeeze_activation): ReLU(inplace)
      )
      (group2): Sequential(
        (expand1x1): Conv2d(48, 192, kernel_size=(1, 1), stride=(1, 1))
        (BatchNorm): BatchNorm2d(192, eps=1e-05, momentum=0.1, affine=True, track_running_stats=True)
        (expand1x1_activation): ReLU(inplace)
      )
      (group3): Sequential(
        (expand3x3): Block_(
          (mob): Sequential(
            (pointwise): Conv2d(48, 48, kernel_size=(3, 3), stride=(1, 1), padding=(1, 1), groups=48, bias=False)
            (activation): ReLU(inplace)
            (depthwise): Conv2d(48, 192, kernel_size=(1, 1), stride=(1, 1), bias=False)
            (BatchNorm): BatchNorm2d(192, eps=1e-05, momentum=0.1, affine=True, track_running_stats=True)
          )
        )
      )
    ), weights=((48, 256, 1, 1), (48,), (48,), (48,), (192, 48, 1, 1), (192,), (192,), (192,), (48, 1, 3, 3), (192, 48, 1, 1), (192,), (192,)), parameters=32256
    (9): Fire_(
      (group1): Sequential(
        (squeeze): Conv2d(384, 48, kernel_size=(1, 1), stride=(1, 1))
        (BatchNorm): BatchNorm2d(48, eps=1e-05, momentum=0.1, affine=True, track_running_stats=True)
        (squeeze_activation): ReLU(inplace)
      )
      (group2): Sequential(
        (expand1x1): Conv2d(48, 192, kernel_size=(1, 1), stride=(1, 1))
        (BatchNorm): BatchNorm2d(192, eps=1e-05, momentum=0.1, affine=True, track_running_stats=True)
        (expand1x1_activation): ReLU(inplace)
      )
      (group3): Sequential(
        (expand3x3): Block_(
          (mob): Sequential(
            (pointwise): Conv2d(48, 48, kernel_size=(3, 3), stride=(1, 1), padding=(1, 1), groups=48, bias=False)
            (activation): ReLU(inplace)
            (depthwise): Conv2d(48, 192, kernel_size=(1, 1), stride=(1, 1), bias=False)
            (BatchNorm): BatchNorm2d(192, eps=1e-05, momentum=0.1, affine=True, track_running_stats=True)
          )
        )
      )
    ), weights=((48, 384, 1, 1), (48,), (48,), (48,), (192, 48, 1, 1), (192,), (192,), (192,), (48, 1, 3, 3), (192, 48, 1, 1), (192,), (192,)), parameters=38400
    (10): Fire_(
      (group1): Sequential(
        (squeeze): Conv2d(384, 64, kernel_size=(1, 1), stride=(1, 1))
        (BatchNorm): BatchNorm2d(64, eps=1e-05, momentum=0.1, affine=True, track_running_stats=True)
        (squeeze_activation): ReLU(inplace)
      )
      (group2): Sequential(
        (expand1x1): Conv2d(64, 256, kernel_size=(1, 1), stride=(1, 1))
        (BatchNorm): BatchNorm2d(256, eps=1e-05, momentum=0.1, affine=True, track_running_stats=True)
        (expand1x1_activation): ReLU(inplace)
      )
      (group3): Sequential(
        (expand3x3): Block_(
          (mob): Sequential(
            (pointwise): Conv2d(64, 64, kernel_size=(3, 3), stride=(1, 1), padding=(1, 1), groups=64, bias=False)
            (activation): ReLU(inplace)
            (depthwise): Conv2d(64, 256, kernel_size=(1, 1), stride=(1, 1), bias=False)
            (BatchNorm): BatchNorm2d(256, eps=1e-05, momentum=0.1, affine=True, track_running_stats=True)
          )
        )
      )
    ), weights=((64, 384, 1, 1), (64,), (64,), (64,), (256, 64, 1, 1), (256,), (256,), (256,), (64, 1, 3, 3), (256, 64, 1, 1), (256,), (256,)), parameters=59392
    (11): MaxPool2d(kernel_size=2, stride=2, padding=0, dilation=1, ceil_mode=True), weights=(), parameters=0
    (12): Fire_(
      (group1): Sequential(
        (squeeze): Conv2d(512, 64, kernel_size=(1, 1), stride=(1, 1))
        (BatchNorm): BatchNorm2d(64, eps=1e-05, momentum=0.1, affine=True, track_running_stats=True)
        (squeeze_activation): ReLU(inplace)
      )
      (group2): Sequential(
        (expand1x1): Conv2d(64, 256, kernel_size=(1, 1), stride=(1, 1))
        (BatchNorm): BatchNorm2d(256, eps=1e-05, momentum=0.1, affine=True, track_running_stats=True)
        (expand1x1_activation): ReLU(inplace)
      )
      (group3): Sequential(
        (expand3x3): Block_(
          (mob): Sequential(
            (pointwise): Conv2d(64, 64, kernel_size=(3, 3), stride=(1, 1), padding=(1, 1), groups=64, bias=False)
            (activation): ReLU(inplace)
            (depthwise): Conv2d(64, 256, kernel_size=(1, 1), stride=(1, 1), bias=False)
            (BatchNorm): BatchNorm2d(256, eps=1e-05, momentum=0.1, affine=True, track_running_stats=True)
          )
        )
      )
    ), weights=((64, 512, 1, 1), (64,), (64,), (64,), (256, 64, 1, 1), (256,), (256,), (256,), (64, 1, 3, 3), (256, 64, 1, 1), (256,), (256,)), parameters=67584
  ), weights=((96, 3, 3, 3), (96,), (32, 96, 1, 1), (32,), (32,), (32,), (64, 32, 1, 1), (64,), (64,), (64,), (32, 1, 3, 3), (64, 32, 1, 1),
…
