…
er_of_model_classes': 10, 'regularization_type': None, 'regularization_value': 0, 'experiment_path': 'artifacts/cifar10/alexnet/baseline', 'execution': 1, 'execution_seed': 1231, 'number_of_dataset_classes': 10, 'normal_classes': [0, 1, 2, 3, 4, 5, 6, 7, 8, 9], 'execution_path': 'artifacts/cifar10/alexnet/baseline/exec1'}

$$$$$$$$$$$$$$$$$$$$$$$$$$$$$$$$$$$$$$$$$$$$$$$$$$$
TRAINSET LOADER SIZE: ====>>>>  50000
VALIDSET LOADER SIZE: ====>>>>  10000
$$$$$$$$$$$$$$$$$$$$$$$$$$$$$$$$$$$$$$$$$$$$$$$$$$$

DATASET: cifar10
=> creating model 'alexnet'

MODEL: AlexNet(
  (features): Sequential(
    (0): Conv2d(3, 64, kernel_size=(3, 3), stride=(1, 1), padding=(1, 1))
    (1): ReLU(inplace)
    (2): MaxPool2d(kernel_size=3, stride=2, padding=0, dilation=1, ceil_mode=True)
    (3): Conv2d(64, 192, kernel_size=(3, 3), stride=(1, 1), padding=(1, 1))
    (4): ReLU(inplace)
    (5): MaxPool2d(kernel_size=3, stride=2, padding=0, dilation=1, ceil_mode=True)
    (6): Conv2d(192, 384, kernel_size=(3, 3), stride=(1, 1), padding=(1, 1))
    (7): ReLU(inplace)
    (8): Conv2d(384, 256, kernel_size=(3, 3), stride=(1, 1), padding=(1, 1))
    (9): ReLU(inplace)
    (10): Conv2d(256, 256, kernel_size=(3, 3), stride=(1, 1), padding=(1, 1))
    (11): ReLU(inplace)
    (12): MaxPool2d(kernel_size=3, stride=2, padding=0, dilation=1, ceil_mode=True)
  )
  (classifier): Sequential(
    (0): Linear(in_features=4096, out_features=4096, bias=True)
    (1): BatchNorm1d(4096, eps=1e-05, momentum=0.1, affine=True, track_running_stats=True)
    (2): ReLU(inplace)
    (3): Linear(in_features=4096, out_features=4096, bias=True)
    (4): BatchNorm1d(4096, eps=1e-05, momentum=0.1, affine=True, track_running_stats=True)
    (5): ReLU(inplace)
    (6): Linear(in_features=4096, out_features=10, bias=True)
  )
)

################ TRAINING ################

######## EPOCH: 1 OF 150 ########

LEARNING RATE:	 0.05
Train Epoch: [1][16/391]	Data 0.000097	Time 0.049182	Loss 17.0352	Entropy 0.7680		Acc1 13.04	Acc5 52.34
Train Epoch: [1][32/391]	Data 0.000091	Time 0.049438	Loss 17.0831	Entropy 0.7354		Acc1 13.79	Acc5 54.30
Train Epoch: [1][48/391]	Data 0.000093	Time 0.049269	Loss 16.4422	Entropy 0.8201		Acc1 13.72	Acc5 55.08
…
                             Normalize(mean=(0.491, 0.482, 0.446), std=(0.247, 0.243, 0.261))
                         )
    Target Transforms (if any): None
LOGITS:		 torch.Size([10000, 10])
TARGETS:	 torch.Size([10000])
save artifacts/cifar10/alexnet/baseline/exec1/logits/best_model_test.pth


################ COMPUTING INFERENCE TIMES AND MODEL WEIGHTS, BIAS AND PARAMETERS ################

COMPUTING INFERENCE TIME: CPU

COMPUTING INFERENCE TIME: GPU

MEAN CPU INFERENCE TIME (MILISECONDS):	16.8517
MEAN GPU INFERENCE TIME (MILISECONDS):	0.3608

NUMBER OF WEIGHTS, BIAS AND PARAMETERS:
AlexNet (
  (features): Sequential (
    (0): Conv2d(3, 64, kernel_size=(3, 3), stride=(1, 1), padding=(1, 1)), weights=((64, 3, 3, 3), (64,)), parameters=1792
    (1): ReLU(inplace), weights=(), parameters=0
    (2): MaxPool2d(kernel_size=3, stride=2, padding=0, dilation=1, ceil_mode=True), weights=(), parameters=0
    (3): Conv2d(64, 192, kernel_size=(3, 3), stride=(1, 1), padding=(1, 1)), weights=((192, 64, 3, 3), (192,)), parameters=110784
    (4): ReLU(inplace), weights=(), parameters=0
    (5): MaxPool2d(kernel_size=3, stride=2, padding=0, dilation=1, ceil_mode=True), weights=(), parameters=0
    (6): Conv2d(192, 384, kernel_size=(3, 3), stride=(1, 1), padding=(1, 1)), weights=((384, 192, 3, 3), (384,)), parameters=663936
    (7): ReLU(inplace), weights=(), parameters=0
    (8): Conv2d(384, 256, kernel_size=(3, 3), stride=(1, 1), padding=(1, 1)), weights=((256, 384, 3, 3), (256,)), parameters=884992
    (9): ReLU(inplace), weights=(), parameters=0
    (10): Conv2d(256, 256, kernel_size=(3, 3), stride=(1, 1), padding=(1, 1)), weights=((256, 256, 3, 3), (256,)), parameters=590080
    (11): ReLU(inplace), weights=(), parameters=0
    (12): MaxPool2d(kernel_size=3, stride=2, padding=0, dilation=1, ceil_mode=True), weights=(), parameters=0
  ), weights=((64, 3, 3, 3), (64,), (192, 64, 3, 3), (192,), (384, 192, 3, 3), (384,), (256, 384, 3, 3), (256,), (256, 256, 3, 3), (256,)), parameters=2251584
  (classifier): Sequential (
    (0): Linear(in_features=4096, out_features=4096, bias=True), weights=((4096, 4096), (4096,)), parameters=16781312
    (1): BatchNorm1d(4096, eps=1e-05, momentum=0.1, affine=True, track_running_stats=True), weights=((4096,), (4096,)), parameters=8192
    (2): ReLU(inplace), weights=(), parameters=0
    (3): Linear(in_features=4096, out_features=4096, bias=True), weights=((4096, 4096), (4096,)), parameters=16781312
    (4): BatchNorm1d(4096, eps=1e-05, momentum=0.1, affine=True, track_running_stats=True), weights=((4096,), (4096,)), parameters=8192
    (5): ReLU(inplace), weights=(), parameters=0
    (6): Linear(in_features=4096, out_features=10, bias=True), weights=((10, 4096), (10,)), parameters=40970
  ), weights=((4096, 4096), (4096,), (4096,), (4096,), (4096, 4096), (4096,), (4096,), (4096,), (10, 4096), (10,)), parameters=33619978
) 


################ EXECUTION: 2 OF 5 ################
EXECUTION SEED: 1232

ARGUMENTS:  {'dataset_dir': None, 'executions': 5, 'dataset': 'cifar10', 'local_model': 'ale
…
