…
, 'arch': 'alexnet_', 'base_seed': 1230, 'number_of_model_classes': 10, 'regularization_type': None, 'regularization_value': 0, 'experiment_path': 'artifacts/cifar10/alexnet_/bsd~1230', 'execution': 1, 'execution_seed': 1231, 'number_of_dataset_classes': 10, 'execution_path': 'artifacts/cifar10/alexnet_/bsd~1230/exec1'}

$$$$$$$$$$$$$$$$$$$$$$$$$$$$$$$$$$$$$$$$$$$$$$$$$$$
TRAINSET LOADER SIZE: ====>>>>  50000
VALIDSET LOADER SIZE: ====>>>>  10000
$$$$$$$$$$$$$$$$$$$$$$$$$$$$$$$$$$$$$$$$$$$$$$$$$$$

DATASET: cifar10
=> creating model 'alexnet_'

MODEL: AlexNet_(
  (features): Sequential(
    (0): Conv2d(3, 64, kernel_size=(3, 3), stride=(1, 1), padding=(1, 1))
    (1): ReLU(inplace)
    (2): MaxPool2d(kernel_size=3, stride=2, padding=0, dilation=1, ceil_mode=True)
    (3): Conv2d(64, 192, kernel_size=(3, 3), stride=(1, 1), padding=(1, 1))
    (4): ReLU(inplace)
    (5): MaxPool2d(kernel_size=3, stride=2, padding=0, dilation=1, ceil_mode=True)
    (6): Conv2d(192, 384, kernel_size=(3, 3), stride=(1, 1), padding=(1, 1))
    (7): ReLU(inplace)
    (8): Conv2d(384, 256, kernel_size=(3, 3), stride=(1, 1), padding=(1, 1))
    (9): ReLU(inplace)
    (10): Conv2d(256, 256, kernel_size=(3, 3), stride=(1, 1), padding=(1, 1))
    (11): ReLU(inplace)
    (12): MaxPool2d(kernel_size=3, stride=2, padding=0, dilation=1, ceil_mode=True)
  )
  (classifier): Sequential(
    (0): Linear(in_features=4096, out_features=4096, bias=True)
    (1): BatchNorm1d(4096, eps=1e-05, momentum=0.1, affine=True, track_running_stats=True)
    (2): ReLU(inplace)
    (3): Linear(in_features=4096, out_features=4096, bias=True)
    (4): BatchNorm1d(4096, eps=1e-05, momentum=0.1, affine=True, track_running_stats=True)
    (5): ReLU(inplace)
    (6): Linear(in_features=4096, out_features=10, bias=True)
  )
)

################ TRAINING ################

######## EPOCH: 1 OF 2 ########

LEARNING RATE:	 0.05
Train Epoch: [1][16/391]	Data 0.000769	Time 0.049629	Loss 16.6888	Entropy 0.6871		Acc1 11.82	Acc5 54.15
Train Epoch: [1][32/391]	Data 0.000804	Time 0.049473	Loss 12.0797	Entropy 0.9506		Acc1 11.47	Acc5 53.66
Train Epoch: [1][48/391]	Data 0.000870	Time 0.049357	Loss 9.8145	Entropy 1.2796		Acc1 12.52	Acc5 55.60
…
Valid Epoch: [2][48/79]	Data 0.000802	Time 0.017337	Entropy 1.8538		Acc1 32.86	Acc5 85.53
Valid Epoch: [2][64/79]	Data 0.000793	Time 0.017426	Entropy 1.8547		Acc1 33.13	Acc5 85.57

CONFUSION:
 [[… #### VALID: 33.250

!+NEW BEST+ 33.250 IN EPOCH 2!!! SAVING... artifacts/cifar10/alexnet_/bsd~1230/exec1/best_model.pth.tar

!$$$$ BEST: 33.250


################ COMPUTING INFERENCE TIMES AND MODEL WEIGHTS, BIAS AND PARAMETERS ################

COMPUTING INFERENCE TIME: CPU

COMPUTING INFERENCE TIME: GPU

MEAN CPU INFERENCE TIME (MILISECONDS):	16.7759
MEAN GPU INFERENCE TIME (MILISECONDS):	0.3674

NUMBER OF WEIGHTS, BIAS AND PARAMETERS:
AlexNet_ (
  (features): Sequential (
    (0): Conv2d(3, 64, kernel_size=(3, 3), stride=(1, 1), padding=(1, 1)), weights=((64, 3, 3, 3), (64,)), parameters=1792
    (1): ReLU(inplace), weights=(), parameters=0
    (2): MaxPool2d(kernel_size=3, stride=2, padding=0, dilation=1, ceil_mode=True), weights=(), parameters=0
    (3): Conv2d(64, 192, kernel_size=(3, 3), stride=(1, 1), padding=(1, 1)), weights=((192, 64, 3, 3), (192,)), parameters=110784
    (4): ReLU(inplace), weights=(), parameters=0
    (5): MaxPool2d(kernel_size=3, stride=2, padding=0, dilation=1, ceil_mode=True), weights=(), parameters=0
    (6): Conv2d(192, 384, kernel_size=(3, 3), stride=(1, 1), padding=(1, 1)), weights=((384, 192, 3, 3), (384,)), parameters=663936
    (7): ReLU(inplace), weights=(), parameters=0
    (8): Conv2d(384, 256, kernel_size=(3, 3), stride=(1, 1), padding=(1, 1)), weights=((256, 384, 3, 3), (256,)), parameters=884992
    (9): ReLU(inplace), weights=(), parameters=0
    (10): Conv2d(256, 256, kernel_size=(3, 3), stride=(1, 1), padding=(1, 1)), weights=((256, 256, 3, 3), (256,)), parameters=590080
    (11): ReLU(inplace), weights=(), parameters=0
    (12): MaxPool2d(kernel_size=3, stride=2, padding=0, dilation=1, ceil_mode=True), weights=(), parameters=0
  ), weights=((64, 3, 3, 3), (64,), (192, 64, 3, 3), (192,), (384, 192, 3, 3), (384,), (256, 384, 3, 3), (256,), (256, 256, 3, 3), (256,)), parameters=2251584
  (classifier): Sequential (
    (0): Linear(in_features=4096, out_features=4096, bias=True), weights=((4096, 4096), (4096,)), parameters=16781312
    (1): BatchNorm1d(4096, eps=1e-05, momentum=0.1, affine=True, track_running_stats=True), weights=((4096,), (4096,)), parameters=8192
    (2): ReLU(inplace), weights=(), parameters=0
    (3): Linear(in_features=4096, out_features=4096, bias=True), weights=((4096, 4096), (4096,)), parameters=16781312
    (4): BatchNorm1d(4096, eps=1e-05, momentum=0.1, affine=True, track_running_stats=True), weights=((4096,), (4096,)), parameters=8192
    (5): ReLU(inplace), weights=(), parameters=0
    (6): Linear(in_features=4096, out_features=10, bias=True), weights=((10, 4096), (10,)), parameters=40970
  ), weights=((4096, 4096), (4096,), (4096,), (4096,), (4096, 4096), (4096,), (4096,), (4096,), (10, 4096), (10,)), parameters=33619978
) 




$$$$$$$$$$$$$$$$$$$$$$$$$$$$$$$$
 OVERALL STATISTICS 
$$$$$$$$$$$$$$$$$$$$$$$$$$$$$$$$


 BSD~1230

                        0
TRAIN [ACC1]   24.232000
VAL [ACC1]     33.250000
…
