…
, 'arch': 'alexnet_', 'base_seed': 1230, 'number_of_model_classes': 10, 'regularization_type': None, 'regularization_value': 0, 'experiment_path': 'artifacts/cifar10/alexnet_/baseline', 'execution': 1, 'execution_seed': 1231, 'number_of_dataset_classes': 10, 'execution_path': 'artifacts/cifar10/alexnet_/baseline/exec1'}

$$$$$$$$$$$$$$$$$$$$$$$$$$$$$$$$$$$$$$$$$$$$$$$$$$$
TRAINSET LOADER SIZE: ====>>>>  50000
VALIDSET LOADER SIZE: ====>>>>  10000
$$$$$$$$$$$$$$$$$$$$$$$$$$$$$$$$$$$$$$$$$$$$$$$$$$$

DATASET: cifar10
=> creating model 'alexnet_'

MODEL: AlexNet_(
  (features): Sequential(
    (0): Conv2d(3, 64, kernel_size=(3, 3), stride=(1, 1), padding=(1, 1))
    (1): ReLU(inplace)
    (2): MaxPool2d(kernel_size=3, stride=2, padding=0, dilation=1, ceil_mode=True)
    (3): Conv2d(64, 192, kernel_size=(3, 3), stride=(1, 1), padding=(1, 1))
    (4): ReLU(inplace)
    (5): MaxPool2d(kernel_size=3, stride=2, padding=0, dilation=1, ceil_mode=True)
    (6): Conv2d(192, 384, kernel_size=(3, 3), stride=(1, 1), padding=(1, 1))
    (7): ReLU(inplace)
    (8): Conv2d(384, 256, kernel_size=(3, 3), stride=(1, 1), padding=(1, 1))
    (9): ReLU(inplace)
    (10): Conv2d(256, 256, kernel_size=(3, 3), stride=(1, 1), padding=(1, 1))
    (11): ReLU(inplace)
    (12): MaxPool2d(kernel_size=3, stride=2, padding=0, dilation=1, ceil_mode=True)
  )
  (classifier): Sequential(
    (0): Linear(in_features=4096, out_features=4096, bias=True)
    (1): BatchNorm1d(4096, eps=1e-05, momentum=0.1, affine=True, track_running_stats=True)
    (2): ReLU(inplace)
    (3): Linear(in_features=4096, out_features=4096, bias=True)
    (4): BatchNorm1d(4096, eps=1e-05, momentum=0.1, affine=True, track_running_stats=True)
    (5): ReLU(inplace)
    (6): Linear(in_features=4096, out_features=10, bias=True)
  )
)

################ TRAINING ################

######## EPOCH: 1 OF 100 ########

LEARNING RATE:	 0.1
Train Epoch: [1][16/391]	Data 0.000850	Time 0.048264	Loss 47.8180	Entropy 0.5540		Acc1 11.04	Acc5 55.08
Train Epoch: [1][32/391]	Data 0.000815	Time 0.048887	Loss 38.6778	Entropy 0.7206		Acc1 13.16	Acc5 59.52
Train Epoch: [1][48/391]	Data 0.000887	Time 0.049058	Loss 29.1511	Entropy 0.9053		Acc1 14.52	Acc5 62.81
…
