…
, 'arch': 'alexnet_', 'base_seed': 1230, 'number_of_model_classes': 10, 'regularization_type': None, 'regularization_value': 0, 'experiment_path': 'artifacts/cifar10/alexnet_/baseline', 'execution': 1, 'execution_seed': 1231, 'number_of_dataset_classes': 10, 'execution_path': 'artifacts/cifar10/alexnet_/baseline/exec1'}

$$$$$$$$$$$$$$$$$$$$$$$$$$$$$$$$$$$$$$$$$$$$$$$$$$$
TRAINSET LOADER SIZE: ====>>>>  50000
VALIDSET LOADER SIZE: ====>>>>  10000
$$$$$$$$$$$$$$$$$$$$$$$$$$$$$$$$$$$$$$$$$$$$$$$$$$$

DATASET: cifar10
=> creating model 'alexnet_'

MODEL: AlexNet_(
  (features): Sequential(
    (0): Conv2d(3, 64, kernel_size=(3, 3), stride=(1, 1), padding=(1, 1))
    (1): ReLU(inplace)
    (2): MaxPool2d(kernel_size=3, stride=2, padding=0, dilation=1, ceil_mode=True)
    (3): Conv2d(64, 192, kernel_size=(3, 3), stride=(1, 1), padding=(1, 1))
    (4): ReLU(inplace)
    (5): MaxPool2d(kernel_size=3, stride=2, padding=0, dilation=1, ceil_mode=True)
    (6): Conv2d(192, 384, kernel_size=(3, 3), stride=(1, 1), padding=(1, 1))
    (7): ReLU(inplace)
    (8): Conv2d(384, 256, kernel_size=(3, 3), stride=(1, 1), padding=(1, 1))
    (9): ReLU(inplace)
    (10): Conv2d(256, 256, kernel_size=(3, 3), stride=(1, 1), padding=(1, 1))
    (11): ReLU(inplace)
    (12): MaxPool2d(kernel_size=3, stride=2, padding=0, dilation=1, ceil_mode=True)
  )
  (classifier): Sequential(
    (0): Linear(in_features=4096, out_features=4096, bias=True)
    (1): BatchNorm1d(4096, eps=1e-05, momentum=0.1, affine=True, track_running_stats=True)
    (2): ReLU(inplace)
    (3): Linear(in_features=4096, out_features=4096, bias=True)
    (4): BatchNorm1d(4096, eps=1e-05, momentum=0.1, affine=True, track_running_stats=True)
    (5): ReLU(inplace)
    (6): Linear(in_features=4096, out_features=10, bias=True)
  )
)

################ TRAINING ################

######## EPOCH: 1 OF 120 ########

LEARNING RATE:	 0.05
Train Epoch: [1][16/391]	Data 0.000720	Time 0.027127	Loss 8.3767	Entropy 0.9049		Acc1 12.79	Acc5 54.59
Train Epoch: [1][32/391]	Data 0.000757	Time 0.026386	Loss 8.2048	Entropy 0.9291		Acc1 13.18	Acc5 55.30
Train Epoch: [1][48/391]	Data 0.000760	Time 0.026158	Loss 8.9358	Entropy 0.8393		Acc1 12.68	Acc5 54.82
…
Valid Epoch: [120][32/79]	Data 0.000763	Time 0.010336	Entropy 0.1513		Acc1 90.89	Acc5 99.56
Valid Epoch: [120][48/79]	Data 0.000879	Time 0.010688	Entropy 0.1499		Acc1 90.76	Acc5 99.59
Valid Epoch: [120][64/79]	Data 0.000860	Time 0.010341	Entropy 0.1487		Acc1 90.44	Acc5 99.60

CONFUSION:
 [[… #### VALID: 90.380

!$$$$ BEST: 90.450


################ COMPUTING INFERENCE TIMES AND MODEL WEIGHTS, BIAS AND PARAMETERS ################

COMPUTING INFERENCE TIME: CPU

COMPUTING INFERENCE TIME: GPU

MEAN CPU INFERENCE TIME (MILISECONDS):	18.9034
MEAN GPU INFERENCE TIME (MILISECONDS):	0.3584

NUMBER OF WEIGHTS, BIAS AND PARAMETERS:
AlexNet_ (
  (features): Sequential (
    (0): Conv2d(3, 64, kernel_size=(3, 3), stride=(1, 1), padding=(1, 1)), weights=((64, 3, 3, 3), (64,)), parameters=1792
    (1): ReLU(inplace), weights=(), parameters=0
    (2): MaxPool2d(kernel_size=3, stride=2, padding=0, dilation=1, ceil_mode=True), weights=(), parameters=0
    (3): Conv2d(64, 192, kernel_size=(3, 3), stride=(1, 1), padding=(1, 1)), weights=((192, 64, 3, 3), (192,)), parameters=110784
    (4): ReLU(inplace), weights=(), parameters=0
    (5): MaxPool2d(kernel_size=3, stride=2, padding=0, dilation=1, ceil_mode=True), weights=(), parameters=0
    (6): Conv2d(192, 384, kernel_size=(3, 3), stride=(1, 1), padding=(1, 1)), weights=((384, 192, 3, 3), (384,)), parameters=663936
    (7): ReLU(inplace), weights=(), parameters=0
    (8): Conv2d(384, 256, kernel_size=(3, 3), stride=(1, 1), padding=(1, 1)), weights=((256, 384, 3, 3), (256,)), parameters=884992
    (9): ReLU(inplace), weights=(), parameters=0
    (10): Conv2d(256, 256, kernel_size=(3, 3), stride=(1, 1), padding=(1, 1)), weights=((256, 256, 3, 3), (256,)), parameters=590080
    (11): ReLU(inplace), weights=(), parameters=0
    (12): MaxPool2d(kernel_size=3, stride=2, padding=0, dilation=1, ceil_mode=True), weights=(), parameters=0
  ), weights=((64, 3, 3, 3), (64,), (192, 64, 3, 3), (192,), (384, 192, 3, 3), (384,), (256, 384, 3, 3), (256,), (256, 256, 3, 3), (256,)), parameters=2251584
  (classifier): Sequential (
    (0): Linear(in_features=4096, out_features=4096, bias=True), weights=((4096, 4096), (4096,)), parameters=16781312
    (1): BatchNorm1d(4096, eps=1e-05, momentum=0.1, affine=True, track_running_stats=True), weights=((4096,), (4096,)), parameters=8192
    (2): ReLU(inplace), weights=(), parameters=0
    (3): Linear(in_features=4096, out_features=4096, bias=True), weights=((4096, 4096), (4096,)), parameters=16781312
    (4): BatchNorm1d(4096, eps=1e-05, momentum=0.1, affine=True, track_running_stats=True), weights=((4096,), (4096,)), parameters=8192
    (5): ReLU(inplace), weights=(), parameters=0
    (6): Linear(in_features=4096, out_features=10, bias=True), weights=((10, 4096), (10,)), parameters=40970
  ), weights=((4096, 4096), (4096,), (4096,), (4096,), (4096, 4096), (4096,), (4096,), (4096,), (10, 4096), (10,)), parameters=33619978
) 


################ EXECUTION: 2 OF 5 ################
EXECUTION SEED: 1232
Files already downloaded and verified
Files already downloaded and verified

ARGUMENTS:  {'da
…
