…
0, 'number_of_model_classes': 1000, 'regularization_type': None, 'regularization_value': 0, 'experiment_path': 'artifacts/imagenet2012/squeezenet1_0/bsd~1230', 'execution': 1, 'execution_seed': 1231, 'number_of_dataset_classes': 1000, 'execution_path': 'artifacts/imagenet2012/squeezenet1_0/bsd~1230/exec1'}

$$$$$$$$$$$$$$$$$$$$$$$$$$$$$$$$$$$$$$$$$$$$$$$$$$$
TRAINSET LOADER SIZE: ====>>>>  1281167
VALIDSET LOADER SIZE: ====>>>>  50000
$$$$$$$$$$$$$$$$$$$$$$$$$$$$$$$$$$$$$$$$$$$$$$$$$$$

DATASET: imagenet2012
=> creating model 'squeezenet1_0'

MODEL: SqueezeNet(
  (features): Sequential(
    (0): Conv2d(3, 96, kernel_size=(7, 7), stride=(2, 2))
    (1): ReLU(inplace)
    (2): MaxPool2d(kernel_size=3, stride=2, padding=0, dilation=1, ceil_mode=True)
    (3): Fire(
      (squeeze): Conv2d(96, 16, kernel_size=(1, 1), stride=(1, 1))
      (squeeze_activation): ReLU(inplace)
      (expand1x1): Conv2d(16, 64, kernel_size=(1, 1), stride=(1, 1))
      (expand1x1_activation): ReLU(inplace)
      (expand3x3): Conv2d(16, 64, kernel_size=(3, 3), stride=(1, 1), padding=(1, 1))
      (expand3x3_activation): ReLU(inplace)
    )
    (4): Fire(
      (squeeze): Conv2d(128, 16, kernel_size=(1, 1), stride=(1, 1))
      (squeeze_activation): ReLU(inplace)
      (expand1x1): Conv2d(16, 64, kernel_size=(1, 1), stride=(1, 1))
      (expand1x1_activation): ReLU(inplace)
      (expand3x3): Conv2d(16, 64, kernel_size=(3, 3), stride=(1, 1), padding=(1, 1))
      (expand3x3_activation): ReLU(inplace)
    )
    (5): Fire(
      (squeeze): Conv2d(128, 32, kernel_size=(1, 1), stride=(1, 1))
      (squeeze_activation): ReLU(inplace)
      (expand1x1): Conv2d(32, 128, kernel_size=(1, 1), stride=(1, 1))
      (expand1x1_activation): ReLU(inplace)
      (expand3x3): Conv2d(32, 128, kernel_size=(3, 3), stride=(1, 1), padding=(1, 1))
      (expand3x3_activation): ReLU(inplace)
    )
    (6): MaxPool2d(kernel_size=3, stride=2, padding=0, dilation=1, ceil_mode=True)
    (7): Fire(
      (squeeze): Conv2d(256, 32, kernel_size=(1, 1), stride=(1, 1))
      (squeeze_activation): ReLU(inplace)
      (expand1x1): Conv2d(32, 128, kernel_size=(1, 1), stride=(1, 1))
      (expand1x1_activation): ReLU(inplace)
      (expand3x3): Conv2d(32, 128, kernel_size=(3, 3), stride=(1, 1), padding=(1, 1))
      (expand3x3_activation): ReLU(inplace)
    )
    (8): Fire(
      (squeeze): Conv2d(256, 48, kernel_size=(1, 1), stride=(1, 1))
      (squeeze_activation): ReLU(inplace)
      (expand1x1): Conv2d(48, 192, kernel_size=(1, 1), stride=(1, 1))
      (expand1x1_activation): ReLU(inplace)
      (expand3x3): Conv2d(48, 192, kernel_size=(3, 3), stride=(1, 1), padding=(1, 1))
      (expand3x3_activation): ReLU(inplace)
    )
    (9): Fire(
      (squeeze): Conv2d(384, 48, kernel_size=(1, 1), stride=(1, 1))
      (squeeze_activation): ReLU(inplace)
      (expand1x1): Conv2d(48, 192, kernel_size=(1, 1), stride=(1, 1))
      (expand1x1_activation): ReLU(inplace)
      (expand3x3): Conv2d(48, 192, kernel_size=(3, 3), stride=(1, 1), padding=(1, 1))
      (expand3x3_activation): ReLU(inplace)
    )
    (10): Fire(
      (squeeze): Conv2d(384, 64, kernel_size=(1, 1), stride=(1, 1))
      (squeeze_activation): ReLU(inplace)
      (expand1x1): Conv2d(64, 256, kernel_size=(1, 1), stride=(1, 1))
      (expand1x1_activation): ReLU(inplace)
      (expand3x3): Conv2d(64, 256, kernel_size=(3, 3), stride=(1, 1), padding=(1, 1))
      (expand3x3_activation): ReLU(inplace)
    )
    (11): MaxPool2d(kernel_size=3, stride=2, padding=0, dilation=1, ceil_mode=True)
    (12): Fire(
      (squeeze): Conv2d(512, 64, kernel_size=(1, 1), stride=(1, 1))
      (squeeze_activation): ReLU(inplace)
      (expand1x1): Conv2d(64, 256, kernel_size=(1, 1), stride=(1, 1))
      (expand1x1_activation): ReLU(inplace)
      (expand3x3): Conv2d(64, 256, kernel_size=(3, 3), stride=(1, 1), padding=(1, 1))
      (expand3x3_activation): ReLU(inplace)
    )
  )
  (classifier): Sequential(
    (0): Dropout(p=0.5)
    (1): Conv2d(512, 1000, kernel_size=(1, 1), stride=(1, 1))
    (2): ReLU(inplace)
    (3): AvgPool2d(kernel_size=13, stride=1, padding=0)
  )
)

################ TRAINING ################

######## EPOCH: 1 OF 2 ########

LEARNING RATE:	 0.05
Train Epoch: [1][16/10010]	Data 0.008461	Time 0.383331	Loss 6.9123	Entropy 6.9052		Acc1 0.00	Acc5 0.44
Train Epoch: [1][32/10010]	Data 0.009311	Time 0.411910	Loss 6.9101	Entropy 6.9064		Acc1 0.05	Acc5 0.34
…
 [0.0000 0.0000 0.0000 ... 0.0200 0.0000 0.0000]
 [0.0000 0.0000 0.0000 ... 0.0000 0.0000 0.0000]
 [0.0000 0.0000 0.0200 ... 0.0000 0.0000 0.0000]]

#### VALID: 4.666

!+NEW BEST+ 4.666 IN EPOCH 2!!! SAVING... artifacts/imagenet2012/squeezenet1_0/bsd~1230/exec1/best_model.pth.tar

!$$$$ BEST: 4.666


################ COMPUTING INFERENCE TIMES AND MODEL WEIGHTS, BIAS AND PARAMETERS ################

COMPUTING INFERENCE TIME: CPU

COMPUTING INFERENCE TIME: GPU

MEAN CPU INFERENCE TIME (MILISECONDS):	38.8260
MEAN GPU INFERENCE TIME (MILISECONDS):	1.5565

NUMBER OF WEIGHTS, BIAS AND PARAMETERS:
SqueezeNet (
  (features): Sequential (
    (0): Conv2d(3, 96, kernel_size=(7, 7), stride=(2, 2)), weights=((96, 3, 7, 7), (96,)), parameters=14208
    (1): ReLU(inplace), weights=(), parameters=0
    (2): MaxPool2d(kernel_size=3, stride=2, padding=0, dilation=1, ceil_mode=True), weights=(), parameters=0
    (3): Fire(
      (squeeze): Conv2d(96, 16, kernel_size=(1, 1), stride=(1, 1))
      (squeeze_activation): ReLU(inplace)
      (expand1x1): Conv2d(16, 64, kernel_size=(1, 1), stride=(1, 1))
      (expand1x1_activation): ReLU(inplace)
      (expand3x3): Conv2d(16, 64, kernel_size=(3, 3), stride=(1, 1), padding=(1, 1))
      (expand3x3_activation): ReLU(inplace)
    ), weights=((16, 96, 1, 1), (16,), (64, 16, 1, 1), (64,), (64, 16, 3, 3), (64,)), parameters=11920
    (4): Fire(
      (squeeze): Conv2d(128, 16, kernel_size=(1, 1), stride=(1, 1))
      (squeeze_activation): ReLU(inplace)
      (expand1x1): Conv2d(16, 64, kernel_size=(1, 1), stride=(1, 1))
      (expand1x1_activation): ReLU(inplace)
      (expand3x3): Conv2d(16, 64, kernel_size=(3, 3), stride=(1, 1), padding=(1, 1))
      (expand3x3_activation): ReLU(inplace)
    ), weights=((16, 128, 1, 1), (16,), (64, 16, 1, 1), (64,), (64, 16, 3, 3), (64,)), parameters=12432
    (5): Fire(
      (squeeze): Conv2d(128, 32, kernel_size=(1, 1), stride=(1, 1))
      (squeeze_activation): ReLU(inplace)
      (expand1x1): Conv2d(32, 128, kernel_size=(1, 1), stride=(1, 1))
      (expand1x1_activation): ReLU(inplace)
      (expand3x3): Conv2d(32, 128, kernel_size=(3, 3), stride=(1, 1), padding=(1, 1))
      (expand3x3_activation): ReLU(inplace)
    ), weights=((32, 128, 1, 1), (32,), (128, 32, 1, 1), (128,), (128, 32, 3, 3), (128,)), parameters=45344
    (6): MaxPool2d(kernel_size=3, stride=2, padding=0, dilation=1, ceil_mode=True), weights=(), parameters=0
    (7): Fire(
      (squeeze): Conv2d(256, 32, kernel_size=(1, 1), stride=(1, 1))
      (squeeze_activation): ReLU(inplace)
      (expand1x1): Conv2d(32, 128, kernel_size=(1, 1), stride=(1, 1))
      (expand1x1_activation): ReLU(inplace)
      (expand3x3): Conv2d(32, 128, kernel_size=(3, 3), stride=(1, 1), padding=(1, 1))
      (expand3x3_activation): ReLU(inplace)
    ), weights=((32, 256, 1, 1), (32,), (128, 32, 1, 1), (128,), (128, 32, 3, 3), (128,)), parameters=49440
    (8): Fire(
      (squeeze): Conv2d(256, 48, kernel_size=(1, 1), stride=(1, 1))
      (squeeze_activation): ReLU(inplace)
      (expand1x1): Conv2d(48, 192, kernel_size=(1, 1), stride=(1, 1))
      (expand1x1_activation): ReLU(inplace)
      (expand3x3): Conv2d(48, 192, kernel_size=(3, 3), stride=(1, 1), padding=(1, 1))
      (expand3x3_activation): ReLU(inplace)
    ), weights=((48, 256, 1, 1), (48,), (192, 48, 1, 1), (192,), (192, 48, 3, 3), (192,)), parameters=104880
    (9): Fire(
      (squeeze): Conv2d(384, 48, kernel_size=(1, 1), stride=(1, 1))
      (squeeze_activation): ReLU(inplace)
      (expand1x1): Conv2d(48, 192, kernel_size=(1, 1), stride=(1, 1))
      (expand1x1_activation): ReLU(inplace)
      (expand3x3): Conv2d(48, 192, kernel_size=(3, 3), stride=(1, 1), padding=(1, 1))
      (expand3x3_activation): ReLU(inplace)
    ), weights=((48, 384, 1, 1), (48,), (192, 48, 1, 1), (192,), (192, 48, 3, 3), (192,)), parameters=111024
    (10): Fire(
      (squeeze): Conv2d(384, 64, kernel_size=(1, 1), stride=(1, 1))
      (squeeze_activation): ReLU(inplace)
      (expand1x1): Conv2d(64, 256, kernel_size=(1, 1), stride=(1, 1))
      (expand1x1_activation): ReLU(inplace)
      (expand3x3): Conv2d(64, 256, kernel_size=(3, 3), stride=(1, 1), padding=(1, 1))
      (expand3x3_activation): ReLU(inplace)
    ), weights=((64, 384, 1, 1), (64,), (256, 64, 1, 1), (256,), (256, 64, 3, 3), (256,)), parameters=188992
    (11): MaxPool2d(kernel_size=3, stride=2, padding=0, dilation=1, ceil_mode=True), weights=(), parameters=0
    (12): Fire(
      (squeeze): Conv2d(512, 64, kernel_size=(1, 1), stride=(1, 1))
      (squeeze_activation): ReLU(inplace)
      (expand1x1): Conv2d(64, 256, kernel_size=(1, 1), stride=(1, 1))
      (expand1x1_activation): ReLU(inplace)
      (expand3x3): Conv2d(64, 256, kernel_size=(3, 3), stride=(1, 1), padding=(1, 1))
      (expand3x3_activation): ReLU(inplace)
    ), weights=((64, 512, 1, 1), (64,), (256, 64, 1, 1), (256,), (256, 64, 3, 3), (256,)), parameters=197184
  ), weights=((96, 3, 7, 7), (96,), (16, 96, 1, 1), (16,), (64, 16, 1, 1), (64,), (64, 16, 3, 3), (64,), (16, 128, 1, 1), (16,), (64, 16, 1, 1), (64,), (64, 16, 3, 3), (64,), (32, 128, 1,
…
