…
regularization_type': None, 'regularization_value': 0, 'experiment_path': 'artifacts/cifar10/squeezemobnet/bsd~12340', 'execution': 1, 'execution_seed': 12341, 'number_of_dataset_classes': 10, 'normal_classes': [0, 1, 2, 3, 4, 5, 6, 7, 8, 9], 'execution_path': 'artifacts/cifar10/squeezemobnet/bsd~12340/exec1'}

$$$$$$$$$$$$$$$$$$$$$$$$$$$$$$$$$$$$$$$$$$$$$$$$$$$
TRAINSET LOADER SIZE: ====>>>>  50000
VALIDSET LOADER SIZE: ====>>>>  10000
$$$$$$$$$$$$$$$$$$$$$$$$$$$$$$$$$$$$$$$$$$$$$$$$$$$

DATASET: cifar10
=> creating model 'squeezemobnet'

MODEL: SqueezeMobNet(
  (features): Sequential(
    (0): Conv2d(3, 96, kernel_size=(3, 3), stride=(1, 1), padding=(1, 1))
    (1): ReLU(inplace)
    (2): MaxPool2d(kernel_size=2, stride=2, padding=0, dilation=1, ceil_mode=True)
    (3): Fire(
      (group1): Sequential(
        (squeeze): Conv2d(96, 32, kernel_size=(1, 1), stride=(1, 1))
        (BatchNorm): BatchNorm2d(32, eps=1e-05, momentum=0.1, affine=True, track_running_stats=True)
        (squeeze_activation): ReLU(inplace)
      )
      (group2): Sequential(
        (expand1x1): Conv2d(32, 64, kernel_size=(1, 1), stride=(1, 1))
        (BatchNorm): BatchNorm2d(64, eps=1e-05, momentum=0.1, affine=True, track_running_stats=True)
        (expand1x1_activation): ReLU(inplace)
      )
      (group3): Sequential(
        (expand3x3): Block(
          (mob): Sequential(
            (pointwise): Conv2d(32, 32, kernel_size=(3, 3), stride=(1, 1), padding=(1, 1), groups=32, bias=False)
            (activation): ReLU(inplace)
            (depthwise): Conv2d(32, 64, kernel_size=(1, 1), stride=(1, 1), bias=False)
            (BatchNorm): BatchNorm2d(64, eps=1e-05, momentum=0.1, affine=True, track_running_stats=True)
          )
        )
      )
    )
    (4): Fire(
      (group1): Sequential(
        (squeeze): Conv2d(128, 16, kernel_size=(1, 1), stride=(1, 1))
        (BatchNorm): BatchNorm2d(16, eps=1e-05, momentum=0.1, affine=True, track_running_stats=True)
        (squeeze_activation): ReLU(inplace)
      )
      (group2): Sequential(
        (expand1x1): Conv2d(16, 64, kernel_size=(1, 1), stride=(1, 1))
        (BatchNorm): BatchNorm2d(64, eps=1e-05, momentum=0.1, affine=True, track_running_stats=True)
        (expand1x1_activation): ReLU(inplace)
      )
      (group3): Sequential(
        (expand3x3): Block(
          (mob): Sequential(
            (pointwise): Conv2d(16, 16, kernel_size=(3, 3), stride=(1, 1), padding=(1, 1), groups=16, bias=False)
            (activation): ReLU(inplace)
            (depthwise): Conv2d(16, 64, kernel_size=(1, 1), stride=(1, 1), bias=False)
            (BatchNorm): BatchNorm2d(64, eps=1e-05, momentum=0.1, affine=True, track_running_stats=True)
          )
        )
      )
    )
    (5): Fire(
      (group1): Sequential(
        (squeeze): Conv2d(128, 32, kernel_size=(1, 1), stride=(1, 1))
        (BatchNorm): BatchNorm2d(32, eps=1e-05, momentum=0.1, affine=True, track_running_stats=True)
        (squeeze_activation): ReLU(inplace)
      )
      (group2): Sequential(
        (expand1x1): Conv2d(32, 128, kernel_size=(1, 1), stride=(1, 1))
        (BatchNorm): BatchNorm2d(128, eps=1e-05, momentum=0.1, affine=True, track_running_stats=True)
        (expand1x1_activation): ReLU(inplace)
      )
      (group3): Sequential(
        (expand3x3): Block(
          (mob): Sequential(
            (pointwise): Conv2d(32, 32, kernel_size=(3, 3), stride=(1, 1), padding=(1, 1), groups=32, bias=False)
            (activation): ReLU(inplace)
            (depthwise): Conv2d(32, 128, kernel_size=(1, 1), stride=(1, 1), bias=False)
            (BatchNorm): BatchNorm2d(128, eps=1e-05, momentum=0.1, affine=True, track_running_stats=True)
          )
        )
      )
    )
    (6): Fire(
      (group1): Sequential(
        (squeeze): Conv2d(256, 32, kernel_size=(1, 1), stride=(1, 1))
        (BatchNorm): BatchNorm2d(32, eps=1e-05, momentum=0.1, affine=True, track_running_stats=True)
        (squeeze_activation): ReLU(inplace)
      )
      (group2): Sequential(
        (expand1x1): Conv2d(32, 128, kernel_size=(1, 1), stride=(1, 1))
        (BatchNorm): BatchNorm2d(128, eps=1e-05, momentum=0.1, affine=True, track_running_stats=True)
        (expand1x1_activation): ReLU(inplace)
      )
      (group3): Sequential(
        (expand3x3): Block(
          (mob): Sequential(
            (pointwise): Conv2d(32, 32, kernel_size=(3, 3), stride=(1, 1), padding=(1, 1), groups=32, bias=False)
            (activation): ReLU(inplace)
            (depthwise): Conv2d(32, 128, kernel_size=(1, 1), stride=(1, 1), bias=False)
            (BatchNorm): BatchNorm2d(128, eps=1e-05, momentum=0.1, affine=True, track_running_stats=True)
          )
        )
      )
    )
    (7): MaxPool2d(kernel_size=2, stride=2, padding=0, dilation=1, ceil_mode=True)
    (8): Fire(
      (group1): Sequential(
        (squeeze): Conv2d(256, 48, kernel_size=(1, 1), stride=(1, 1))
        (BatchNorm): BatchNorm2d(48, eps=1e-05, momentum=0.1, affine=True, track_running_stats=True)
        (squeeze_activation): ReLU(inplace)
      )
      (group2): Sequential(
        (expand1x1): Conv2d(48, 192, kernel_size=(1, 1), stride=(1, 1))
        (BatchNorm): BatchNorm2d(192, eps=1e-05, momentum=0.1, affine=True, track_running_stats=True)
        (expand1x1_activation): ReLU(inplace)
      )
      (group3): Sequential(
        (expand3x3): Block(
          (mob): Sequential(
            (pointwise): Conv2d(48, 48, kernel_size=(3, 3), stride=(1, 1), padding=(1, 1), groups=48, bias=False)
            (activation): ReLU(inplace)
            (depthwise): Conv2d(48, 192, kernel_size=(1, 1), stride=(1, 1), bias=False)
            (BatchNorm): BatchNorm2d(192, eps=1e-05, momentum=0.1, affine=True, track_running_stats=True)
          )
        )
      )
    )
    (9): Fire(
      (group1): Sequential(
        (squeeze): Conv2d(384, 48, kernel_size=(1, 1), stride=(1, 1))
        (BatchNorm): BatchNorm2d(48, eps=1e-05, momentum=0.1, affine=True, track_running_stats=True)
        (squeeze_activation): ReLU(inplace)
      )
      (group2): Sequential(
        (expand1x1): Conv2d(48, 192, kernel_size=(1, 1), stride=(1, 1))
        (BatchNorm): BatchNorm2d(192, eps=1e-05, momentum=0.1, affine=True, track_running_stats=True)
        (expand1x1_activation): ReLU(inplace)
      )
      (group3): Sequential(
        (expand3x3): Block(
          (mob): Sequential(
            (pointwise): Conv2d(48, 48, kernel_size=(3, 3), stride=(1, 1), padding=(1, 1), groups=48, bias=False)
            (activation): ReLU(inplace)
            (depthwise): Conv2d(48, 192, kernel_size=(1, 1), stride=(1, 1), bias=False)
            (BatchNorm): BatchNorm2d(192, eps=1e-05, momentum=0.1, affine=True, track_running_stats=True)
          )
        )
      )
    )
    (10): Fire(
      (group1): Sequential(
        (squeeze): Conv2d(384, 64, kernel_size=(1, 1), stride=(1, 1))
        (BatchNorm): BatchNorm2d(64, eps=1e-05, momentum=0.1, affine=True, track_running_stats=True)
        (squeeze_activation): ReLU(inplace)
      )
      (group2): Sequential(
        (expand1x1): Conv2d(64, 256, kernel_size=(1, 1), stride=(1, 1))
        (BatchNorm): BatchNorm2d(256, eps=1e-05, momentum=0.1, affine=True, track_running_stats=True)
        (expand1x1_activation): ReLU(inplace)
      )
      (group3): Sequential(
        (expand3x3): Block(
          (mob): Sequential(
            (pointwise): Conv2d(64, 64, kernel_size=(3, 3), stride=(1, 1), padding=(1, 1), groups=64, bias=False)
            (activation): ReLU(inplace)
            (depthwise): Conv2d(64, 256, kernel_size=(1, 1), stride=(1, 1), bias=False)
            (BatchNorm): BatchNorm2d(256, eps=1e-05, momentum=0.1, affine=True, track_running_stats=True)
          )
        )
      )
    )
    (11): MaxPool2d(kernel_size=2, stride=2, padding=0, dilation=1, ceil_mode=True)
    (12): Fire(
      (group1): Sequential(
        (squeeze): Conv2d(512, 64, kernel_size=(1, 1), stride=(1, 1))
        (BatchNorm): BatchNorm2d(64, eps=1e-05, momentum=0.1, affine=True, track_running_stats=True)
        (squeeze_activation): ReLU(inplace)
      )
      (group2): Sequential(
        (expand1x1): Conv2d(64, 256, kernel_size=(1, 1), stride=(1, 1))
        (BatchNorm): BatchNorm2d(256, eps=1e-05, momentum=0.1, affine=True, track_running_stats=True)
        (expand1x1_activation): ReLU(inplace)
      )
      (group3): Sequential(
        (expand3x3): Block(
          (mob): Sequential(
            (pointwise): Conv2d(64, 64, kernel_size=(3, 3), stride=(1, 1), padding=(1, 1), groups=64, bias=False)
            (activation): ReLU(inplace)
            (depthwise): Conv2d(64, 256, kernel_size=(1, 1), stride=(1, 1), bias=False)
            (BatchNorm): BatchNorm2d(256, eps=1e-05, momentum=0.1, affine=True, track_running_stats=True)
          )
        )
      )
    )
  )
  (classifier): Sequential(
    (0): Conv2d(512, 10, kernel_size=(1, 1), stride=(1, 1))
    (1): BatchNorm2d(10, eps=1e-05, momentum=0.1, affine=True, track_running_stats=True)
    (2): ReLU(inplace)
    (3): AvgPool2d(kernel_size=4, stride=4, padding=0)
  )
)

################ TRAINING ################

######## EPOCH: 1 OF 150 ########

LEARNING RATE:	 0.05
Train Epoch: [1][16/391]	Data 0.000122	Time 0.155430	Loss 2.2370	Entropy 2.2721		Acc1 17.24	Acc5 63.82
Train Epoch: [1][32/391]	Data 0.000108	Time 0.156396	Loss 2.1788	Entropy 2.2546		Acc1 20.87	Acc5 69.58
…
                             Normalize(mean=(0.491, 0.482, 0.446), std=(0.247, 0.243, 0.261))
                         )
    Target Transforms (if any): None
LOGITS:		 torch.Size([10000, 10])
TARGETS:	 torch.Size([10000])
save artifacts/cifar10/squeezemobnet/bsd~12340/exec1/logits/best_model_test.pth


################ COMPUTING INFERENCE TIMES AND MODEL WEIGHTS, BIAS AND PARAMETERS ################

COMPUTING INFERENCE TIME: CPU

COMPUTING INFERENCE TIME: GPU

MEAN CPU INFERENCE TIME (MILISECONDS):	8.1972
MEAN GPU INFERENCE TIME (MILISECONDS):	1.9230

NUMBER OF WEIGHTS, BIAS AND PARAMETERS:
SqueezeMobNet (
  (features): Sequential (
    (0): Conv2d(3, 96, kernel_size=(3, 3), stride=(1, 1), padding=(1, 1)), weights=((96, 3, 3, 3), (96,)), parameters=2688
    (1): ReLU(inplace), weights=(), parameters=0
    (2): MaxPool2d(kernel_size=2, stride=2, padding=0, dilation=1, ceil_mode=True), weights=(), parameters=0
    (3): Fire(
      (group1): Sequential(
        (squeeze): Conv2d(96, 32, kernel_size=(1, 1), stride=(1, 1))
        (BatchNorm): BatchNorm2d(32, eps=1e-05, momentum=0.1, affine=True, track_running_stats=True)
        (squeeze_activation): ReLU(inplace)
      )
      (group2): Sequential(
        (expand1x1): Conv2d(32, 64, kernel_size=(1, 1), stride=(1, 1))
        (BatchNorm): BatchNorm2d(64, eps=1e-05, momentum=0.1, affine=True, track_running_stats=True)
        (expand1x1_activation): ReLU(inplace)
      )
      (group3): Sequential(
        (expand3x3): Block(
          (mob): Sequential(
            (pointwise): Conv2d(32, 32, kernel_size=(3, 3), stride=(1, 1), padding=(1, 1), groups=32, bias=False)
            (activation): ReLU(inplace)
            (depthwise): Conv2d(32, 64, kernel_size=(1, 1), stride=(1, 1), bias=False)
            (BatchNorm): BatchNorm2d(64, eps=1e-05, momentum=0.1, affine=True, track_running_stats=True)
          )
        )
      )
    ), weights=((32, 96, 1, 1), (32,), (32,), (32,), (64, 32, 1, 1), (64,), (64,), (64,), (32, 1, 3, 3), (64, 32, 1, 1), (64,), (64,)), parameters=7872
    (4): Fire(
      (group1): Sequential(
        (squeeze): Conv2d(128, 16, kernel_size=(1, 1), stride=(1, 1))
        (BatchNorm): BatchNorm2d(16, eps=1e-05, momentum=0.1, affine=True, track_running_stats=True)
        (squeeze_activation): ReLU(inplace)
      )
      (group2): Sequential(
        (expand1x1): Conv2d(16, 64, kernel_size=(1, 1), stride=(1, 1))
        (BatchNorm): BatchNorm2d(64, eps=1e-05, momentum=0.1, affine=True, track_running_stats=True)
        (expand1x1_activation): ReLU(inplace)
      )
      (group3): Sequential(
        (expand3x3): Block(
          (mob): Sequential(
            (pointwise): Conv2d(16, 16, kernel_size=(3, 3), stride=(1, 1), padding=(1, 1), groups=16, bias=False)
            (activation): ReLU(inplace)
            (depthwise): Conv2d(16, 64, kernel_size=(1, 1), stride=(1, 1), bias=False)
            (BatchNorm): BatchNorm2d(64, eps=1e-05, momentum=0.1, affine=True, track_running_stats=True)
          )
        )
      )
    ), weights=((16, 128, 1, 1), (16,), (16,), (16,), (64, 16, 1, 1), (64,), (64,), (64,), (16, 1, 3, 3), (64, 16, 1, 1), (64,), (64,)), parameters=4608
    (5): Fire(
      (group1): Sequential(
        (squeeze): Conv2d(128, 32, kernel_size=(1, 1), stride=(1, 1))
        (BatchNorm): BatchNorm2d(32, eps=1e-05, momentum=0.1, affine=True, track_running_stats=True)
        (squeeze_activation): ReLU(inplace)
      )
      (group2): Sequential(
        (expand1x1): Conv2d(32, 128, kernel_size=(1, 1), stride=(1, 1))
        (BatchNorm): BatchNorm2d(128, eps=1e-05, momentum=0.1, affine=True, track_running_stats=True)
        (expand1x1_activation): ReLU(inplace)
      )
      (group3): Sequential(
        (expand3x3): Block(
          (mob): Sequential(
            (pointwise): Conv2d(32, 32, kernel_size=(3, 3), stride=(1, 1), padding=(1, 1), groups=32, bias=False)
            (activation): ReLU(inplace)
            (depthwise): Conv2d(32, 128, kernel_size=(1, 1), stride=(1, 1), bias=False)
            (BatchNorm): BatchNorm2d(128, eps=1e-05, momentum=0.1, affine=True, track_running_stats=True)
          )
        )
      )
    ), weights=((32, 128, 1, 1), (32,), (32,), (32,), (128, 32, 1, 1), (128,), (128,), (128,), (32, 1, 3, 3), (128, 32, 1, 1), (128,), (128,)), parameters=13312
    (6): Fire(
      (group1): Sequential(
        (squeeze): Conv2d(256, 32, kernel_size=(1, 1), stride=(1, 1))
        (BatchNorm): BatchNorm2d(32, eps=1e-05, momentum=0.1, affine=True, track_running_stats=True)
        (squeeze_activation): ReLU(inplace)
      )
      (group2): Sequential(
        (expand1x1): Conv2d(32, 128, kernel_size=(1, 1), stride=(1, 1))
        (BatchNorm): BatchNorm2d(128, eps=1e-05, momentum=0.1, affine=True, track_running_stats=True)
        (expand1x1_activation): ReLU(inplace)
      )
      (group3): Sequential(
        (expand3x3): Block(
          (mob): Sequential(
            (pointwise): Conv2d(32, 32, kernel_size=(3, 3), stride=(1, 1), padding=(1, 1), groups=32, bias=False)
            (activation): ReLU(inplace)
            (depthwise): Conv2d(32, 128, kernel_size=(1, 1), stride=(1, 1), bias=False)
            (BatchNorm): BatchNorm2d(128, eps=1e-05, momentum=0.1, affine=True, track_running_stats=True)
          )
        )
      )
    ), weights=((32, 256, 1, 1), (32,), (32,), (32,), (128, 32, 1, 1), (128,), (128,), (128,), (32, 1, 3, 3), (128, 32, 1, 1), (128,), (128,)), parameters=17408
    (7): MaxPool2d(kernel_size=2, stride=2, padding=0, dilation=1, ceil_mode=True), weights=(), parameters=0
    (8): Fire(
      (group1): Sequential(
        (squeeze): Conv2d(256, 48, kernel_size=(1, 1), stride=(1, 1))
        (BatchNorm): BatchNorm2d(48, eps=1e-05, momentum=0.1, affine=True, track_running_stats=True)
        (squeeze_activation): ReLU(inplace)
      )
      (group2): Sequential(
        (expand1x1): Conv2d(48, 192, kernel_size=(1, 1), stride=(1, 1))
        (BatchNorm): BatchNorm2d(192, eps=1e-05, momentum=0.1, affine=True, track_running_stats=True)
        (expand1x1_activation): ReLU(inplace)
      )
      (group3): Sequential(
        (expand3x3): Block(
          (mob): Sequential(
            (pointwise): Conv2d(48, 48, kernel_size=(3, 3), stride=(1, 1), padding=(1, 1), groups=48, bias=False)
            (activation): ReLU(inplace)
            (depthwise): Conv2d(48, 192, kernel_size=(1, 1), stride=(1, 1), bias=False)
            (BatchNorm): BatchNorm2d(192, eps=1e-05, momentum=0.1, affine=True, track_running_stats=True)
          )
        )
      )
    ), weights=((48, 256, 1, 1), (48,), (48,), (48,), (192, 48, 1, 1), (192,), (192,), (192,), (48, 1, 3, 3), (192, 48, 1, 1), (192,), (192,)), parameters=32256
    (9): Fire(
      (group1): Sequential(
        (squeeze): Conv2d(384, 48, kernel_size=(1, 1), stride=(1, 1))
        (BatchNorm): BatchNorm2d(48, eps=1e-05, momentum=0.1, affine=True, track_running_stats=True)
        (squeeze_activation): ReLU(inplace)
      )
      (group2): Sequential(
        (expand1x1): Conv2d(48, 192, kernel_size=(1, 1), stride=(1, 1))
        (BatchNorm): BatchNorm2d(192, eps=1e-05, momentum=0.1, affine=True, track_running_stats=True)
        (expand1x1_activation): ReLU(inplace)
      )
      (group3): Sequential(
        (expand3x3): Block(
          (mob): Sequential(
            (pointwise): Conv2d(48, 48, kernel_size=(3, 3), stride=(1, 1), padding=(1, 1), groups=48, bias=False)
            (activation): ReLU(inplace)
            (depthwise): Conv2d(48, 192, kernel_size=(1, 1), stride=(1, 1), bias=False)
            (BatchNorm): BatchNorm2d(192, eps=1e-05, momentum=0.1, affine=True, track_running_stats=True)
          )
        )
      )
    ), weights=((48, 384, 1, 1), (48,), (48,), (48,), (192, 48, 1, 1), (192,), (192,), (192,), (48, 1, 3, 3), (192, 48, 1, 1), (192,), (192,)), parameters=38400
    (10): Fire(
      (group1): Sequential(
        (squeeze): Conv2d(384, 64, kernel_size=(1, 1), stride=(1, 1))
        (BatchNorm): BatchNorm2d(64, eps=1e-05, momentum=0.1, affine=True, track_running_stats=True)
        (squeeze_activation): ReLU(inplace)
      )
      (group2): Sequential(
        (expand1x1): Conv2d(64, 256, kernel_size=(1, 1), stride=(1, 1))
        (BatchNorm): BatchNorm2d(256, eps=1e-05, momentum=0.1, affine=True, track_running_stats=True)
        (expand1x1_activation): ReLU(inplace)
      )
      (group3): Sequential(
        (expand3x3): Block(
          (mob): Sequential(
            (pointwise): Conv2d(64, 64, kernel_size=(3, 3), stride=(1, 1), padding=(1, 1), groups=64, bias=False)
            (activation): ReLU(inplace)
            (depthwise): Conv2d(64, 256, kernel_size=(1, 1), stride=(1, 1), bias=False)
            (BatchNorm): BatchNorm2d(256, eps=1e-05, momentum=0.1, affine=True, track_running_stats=True)
          )
        )
      )
    ), weights=((64, 384, 1, 1), (64,), (64,), (64,), (256, 64, 1, 1), (256,), (256,), (256,), (64, 1, 3, 3), (256, 64, 1, 1), (256,), (256,)), parameters=59392
    (11): MaxPool2d(kernel_size=2, stride=2, padding=0, dilation=1, ceil_mode=True), weights=(), parameters=0
    (12): Fire(
      (group1): Sequential(
        (squeeze): Conv2d(512, 64, kernel_size=(1, 1), stride=(1, 1))
        (BatchNorm): BatchNorm2d(64, eps=1e-05, momentum=0.1, affine=True, track_running_stats=True)
        (squeeze_activation): ReLU(inplace)
      )
      (group2): Sequential(
        (expand1x1): Conv2d(64, 256, kernel_size=(1, 1), stride=(1, 1))
        (BatchNorm): BatchNorm2d(256, eps=1e-05, momentum=0.1, affine=True, track_running_stats=True)
        (expand1x1_activation): ReLU(inplace)
      )
      (group3): Sequential(
        (expand3x3): Block(
          (mob): Sequential(
            (pointwise): Conv2d(64, 64, kernel_size=(3, 3), stride=(1, 1), padding=(1, 1), groups=64, bias=False)
            (activation): ReLU(inplace)
            (depthwise): Conv2d(64, 256, kernel_size=(1, 1), stride=(1, 1), bias=False)
            (BatchNorm): BatchNorm2d(256, eps=1e-05, momentum=0.1, affine=True, track_running_stats=True)
          )
        )
      )
    ), weights=((64, 512, 1, 1), (64,), (64,), (64,), (256, 64, 1, 1), (256,), (256,), (256,), (64, 1, 3, 3), (256, 64, 1, 1), (256,), (256,)), parameters=67584
  ), weights=((96, 3, 3, 3), (96,), (32, 96, 1, 1), (32,), (32,), (32,), (64, 32, 1, 1), (64,), (64,), (64,), (32, 1, 3, 3), (64, 32, 1, 1),
…
