…
, 38, 39, 40, 41, 42, 43, 44, 45, 46, 47, 48, 49, 50, 51, 52, 53, 54, 55, 56, 57, 58, 59, 60, 61, 62, 63, 64, 65, 66, 67, 68, 69, 70, 71, 72, 73, 74, 75, 76, 77, 78, 79, 80, 81, 82, 83, 84, 85, 86, 87, 88, 89, 90, 91, 92, 93, 94, 95, 96, 97, 98, 99], 'execution_path': 'artifacts/cifar100/squeezenet/baseline/exec1'}

$$$$$$$$$$$$$$$$$$$$$$$$$$$$$$$$$$$$$$$$$$$$$$$$$$$
TRAINSET LOADER SIZE: ====>>>>  50000
VALIDSET LOADER SIZE: ====>>>>  10000
$$$$$$$$$$$$$$$$$$$$$$$$$$$$$$$$$$$$$$$$$$$$$$$$$$$

DATASET: cifar100
=> creating model 'squeezenet'

MODEL: SqueezeNet(
  (features): Sequential(
    (0): Conv2d(3, 96, kernel_size=(3, 3), stride=(1, 1), padding=(1, 1))
    (1): ReLU(inplace)
    (2): MaxPool2d(kernel_size=2, stride=2, padding=0, dilation=1, ceil_mode=True)
    (3): Fire(
      (group1): Sequential(
        (squeeze): Conv2d(96, 32, kernel_size=(1, 1), stride=(1, 1))
        (BatchNorm): BatchNorm2d(32, eps=1e-05, momentum=0.1, affine=True, track_running_stats=True)
        (squeeze_activation): ReLU(inplace)
      )
      (group2): Sequential(
        (expand1x1): Conv2d(32, 64, kernel_size=(1, 1), stride=(1, 1))
        (BatchNorm): BatchNorm2d(64, eps=1e-05, momentum=0.1, affine=True, track_running_stats=True)
        (expand1x1_activation): ReLU(inplace)
      )
      (group3): Sequential(
        (expand3x3): Conv2d(32, 64, kernel_size=(3, 3), stride=(1, 1), padding=(1, 1))
        (BatchNorm): BatchNorm2d(64, eps=1e-05, momentum=0.1, affine=True, track_running_stats=True)
        (expand3x3_activation): ReLU(inplace)
      )
    )
    (4): Fire(
      (group1): Sequential(
        (squeeze): Conv2d(128, 16, kernel_size=(1, 1), stride=(1, 1))
        (BatchNorm): BatchNorm2d(16, eps=1e-05, momentum=0.1, affine=True, track_running_stats=True)
        (squeeze_activation): ReLU(inplace)
      )
      (group2): Sequential(
        (expand1x1): Conv2d(16, 64, kernel_size=(1, 1), stride=(1, 1))
        (BatchNorm): BatchNorm2d(64, eps=1e-05, momentum=0.1, affine=True, track_running_stats=True)
        (expand1x1_activation): ReLU(inplace)
      )
      (group3): Sequential(
        (expand3x3): Conv2d(16, 64, kernel_size=(3, 3), stride=(1, 1), padding=(1, 1))
        (BatchNorm): BatchNorm2d(64, eps=1e-05, momentum=0.1, affine=True, track_running_stats=True)
        (expand3x3_activation): ReLU(inplace)
      )
    )
    (5): Fire(
      (group1): Sequential(
        (squeeze): Conv2d(128, 32, kernel_size=(1, 1), stride=(1, 1))
        (BatchNorm): BatchNorm2d(32, eps=1e-05, momentum=0.1, affine=True, track_running_stats=True)
        (squeeze_activation): ReLU(inplace)
      )
      (group2): Sequential(
        (expand1x1): Conv2d(32, 128, kernel_size=(1, 1), stride=(1, 1))
        (BatchNorm): BatchNorm2d(128, eps=1e-05, momentum=0.1, affine=True, track_running_stats=True)
        (expand1x1_activation): ReLU(inplace)
      )
      (group3): Sequential(
        (expand3x3): Conv2d(32, 128, kernel_size=(3, 3), stride=(1, 1), padding=(1, 1))
        (BatchNorm): BatchNorm2d(128, eps=1e-05, momentum=0.1, affine=True, track_running_stats=True)
        (expand3x3_activation): ReLU(inplace)
      )
    )
    (6): Fire(
      (group1): Sequential(
        (squeeze): Conv2d(256, 32, kernel_size=(1, 1), stride=(1, 1))
        (BatchNorm): BatchNorm2d(32, eps=1e-05, momentum=0.1, affine=True, track_running_stats=True)
        (squeeze_activation): ReLU(inplace)
      )
      (group2): Sequential(
        (expand1x1): Conv2d(32, 128, kernel_size=(1, 1), stride=(1, 1))
        (BatchNorm): BatchNorm2d(128, eps=1e-05, momentum=0.1, affine=True, track_running_stats=True)
        (expand1x1_activation): ReLU(inplace)
      )
      (group3): Sequential(
        (expand3x3): Conv2d(32, 128, kernel_size=(3, 3), stride=(1, 1), padding=(1, 1))
        (BatchNorm): BatchNorm2d(128, eps=1e-05, momentum=0.1, affine=True, track_running_stats=True)
        (expand3x3_activation): ReLU(inplace)
      )
    )
    (7): MaxPool2d(kernel_size=2, stride=2, padding=0, dilation=1, ceil_mode=True)
    (8): Fire(
      (group1): Sequential(
        (squeeze): Conv2d(256, 48, kernel_size=(1, 1), stride=(1, 1))
        (BatchNorm): BatchNorm2d(48, eps=1e-05, momentum=0.1, affine=True, track_running_stats=True)
        (squeeze_activation): ReLU(inplace)
      )
      (group2): Sequential(
        (expand1x1): Conv2d(48, 192, kernel_size=(1, 1), stride=(1, 1))
        (BatchNorm): BatchNorm2d(192, eps=1e-05, momentum=0.1, affine=True, track_running_stats=True)
        (expand1x1_activation): ReLU(inplace)
      )
      (group3): Sequential(
        (expand3x3): Conv2d(48, 192, kernel_size=(3, 3), stride=(1, 1), padding=(1, 1))
        (BatchNorm): BatchNorm2d(192, eps=1e-05, momentum=0.1, affine=True, track_running_stats=True)
        (expand3x3_activation): ReLU(inplace)
      )
    )
    (9): Fire(
      (group1): Sequential(
        (squeeze): Conv2d(384, 48, kernel_size=(1, 1), stride=(1, 1))
        (BatchNorm): BatchNorm2d(48, eps=1e-05, momentum=0.1, affine=True, track_running_stats=True)
        (squeeze_activation): ReLU(inplace)
      )
      (group2): Sequential(
        (expand1x1): Conv2d(48, 192, kernel_size=(1, 1), stride=(1, 1))
        (BatchNorm): BatchNorm2d(192, eps=1e-05, momentum=0.1, affine=True, track_running_stats=True)
        (expand1x1_activation): ReLU(inplace)
      )
      (group3): Sequential(
        (expand3x3): Conv2d(48, 192, kernel_size=(3, 3), stride=(1, 1), padding=(1, 1))
        (BatchNorm): BatchNorm2d(192, eps=1e-05, momentum=0.1, affine=True, track_running_stats=True)
        (expand3x3_activation): ReLU(inplace)
      )
    )
    (10): Fire(
      (group1): Sequential(
        (squeeze): Conv2d(384, 64, kernel_size=(1, 1), stride=(1, 1))
        (BatchNorm): BatchNorm2d(64, eps=1e-05, momentum=0.1, affine=True, track_running_stats=True)
        (squeeze_activation): ReLU(inplace)
      )
      (group2): Sequential(
        (expand1x1): Conv2d(64, 256, kernel_size=(1, 1), stride=(1, 1))
        (BatchNorm): BatchNorm2d(256, eps=1e-05, momentum=0.1, affine=True, track_running_stats=True)
        (expand1x1_activation): ReLU(inplace)
      )
      (group3): Sequential(
        (expand3x3): Conv2d(64, 256, kernel_size=(3, 3), stride=(1, 1), padding=(1, 1))
        (BatchNorm): BatchNorm2d(256, eps=1e-05, momentum=0.1, affine=True, track_running_stats=True)
        (expand3x3_activation): ReLU(inplace)
      )
    )
    (11): MaxPool2d(kernel_size=2, stride=2, padding=0, dilation=1, ceil_mode=True)
    (12): Fire(
      (group1): Sequential(
        (squeeze): Conv2d(512, 64, kernel_size=(1, 1), stride=(1, 1))
        (BatchNorm): BatchNorm2d(64, eps=1e-05, momentum=0.1, affine=True, track_running_stats=True)
        (squeeze_activation): ReLU(inplace)
      )
      (group2): Sequential(
        (expand1x1): Conv2d(64, 256, kernel_size=(1, 1), stride=(1, 1))
        (BatchNorm): BatchNorm2d(256, eps=1e-05, momentum=0.1, affine=True, track_running_stats=True)
        (expand1x1_activation): ReLU(inplace)
      )
      (group3): Sequential(
        (expand3x3): Conv2d(64, 256, kernel_size=(3, 3), stride=(1, 1), padding=(1, 1))
        (BatchNorm): BatchNorm2d(256, eps=1e-05, momentum=0.1, affine=True, track_running_stats=True)
        (expand3x3_activation): ReLU(inplace)
      )
    )
  )
  (classifier): Sequential(
    (0): Conv2d(512, 100, kernel_size=(1, 1), stride=(1, 1))
    (1): BatchNorm2d(100, eps=1e-05, momentum=0.1, affine=True, track_running_stats=True)
    (2): ReLU(inplace)
    (3): AvgPool2d(kernel_size=4, stride=4, padding=0)
  )
)

################ TRAINING ################

######## EPOCH: 1 OF 150 ########

LEARNING RATE:	 0.05
Train Epoch: [1][16/391]	Data 0.000103	Time 0.126721	Loss 4.5253	Entropy 4.5435		Acc1 2.93	Acc5 11.62
Train Epoch: [1][32/391]	Data 0.000156	Time 0.185624	Loss 4.4318	Entropy 4.4999		Acc1 3.86	Acc5 15.23
…
                             Normalize(mean=(0.507, 0.486, 0.44), std=(0.267, 0.256, 0.276))
                         )
    Target Transforms (if any): None
LOGITS:		 torch.Size([10000, 100])
TARGETS:	 torch.Size([10000])
save artifacts/cifar100/squeezenet/baseline/exec1/logits/best_model_test.pth


################ COMPUTING INFERENCE TIMES AND MODEL WEIGHTS, BIAS AND PARAMETERS ################

COMPUTING INFERENCE TIME: CPU

COMPUTING INFERENCE TIME: GPU

MEAN CPU INFERENCE TIME (MILISECONDS):	6.1714
MEAN GPU INFERENCE TIME (MILISECONDS):	1.8260

NUMBER OF WEIGHTS, BIAS AND PARAMETERS:
SqueezeNet (
  (features): Sequential (
    (0): Conv2d(3, 96, kernel_size=(3, 3), stride=(1, 1), padding=(1, 1)), weights=((96, 3, 3, 3), (96,)), parameters=2688
    (1): ReLU(inplace), weights=(), parameters=0
    (2): MaxPool2d(kernel_size=2, stride=2, padding=0, dilation=1, ceil_mode=True), weights=(), parameters=0
    (3): Fire(
      (group1): Sequential(
        (squeeze): Conv2d(96, 32, kernel_size=(1, 1), stride=(1, 1))
        (BatchNorm): BatchNorm2d(32, eps=1e-05, momentum=0.1, affine=True, track_running_stats=True)
        (squeeze_activation): ReLU(inplace)
      )
      (group2): Sequential(
        (expand1x1): Conv2d(32, 64, kernel_size=(1, 1), stride=(1, 1))
        (BatchNorm): BatchNorm2d(64, eps=1e-05, momentum=0.1, affine=True, track_running_stats=True)
        (expand1x1_activation): ReLU(inplace)
      )
      (group3): Sequential(
        (expand3x3): Conv2d(32, 64, kernel_size=(3, 3), stride=(1, 1), padding=(1, 1))
        (BatchNorm): BatchNorm2d(64, eps=1e-05, momentum=0.1, affine=True, track_running_stats=True)
        (expand3x3_activation): ReLU(inplace)
      )
    ), weights=((32, 96, 1, 1), (32,), (32,), (32,), (64, 32, 1, 1), (64,), (64,), (64,), (64, 32, 3, 3), (64,), (64,), (64,)), parameters=24032
    (4): Fire(
      (group1): Sequential(
        (squeeze): Conv2d(128, 16, kernel_size=(1, 1), stride=(1, 1))
        (BatchNorm): BatchNorm2d(16, eps=1e-05, momentum=0.1, affine=True, track_running_stats=True)
        (squeeze_activation): ReLU(inplace)
      )
      (group2): Sequential(
        (expand1x1): Conv2d(16, 64, kernel_size=(1, 1), stride=(1, 1))
        (BatchNorm): BatchNorm2d(64, eps=1e-05, momentum=0.1, affine=True, track_running_stats=True)
        (expand1x1_activation): ReLU(inplace)
      )
      (group3): Sequential(
        (expand3x3): Conv2d(16, 64, kernel_size=(3, 3), stride=(1, 1), padding=(1, 1))
        (BatchNorm): BatchNorm2d(64, eps=1e-05, momentum=0.1, affine=True, track_running_stats=True)
        (expand3x3_activation): ReLU(inplace)
      )
    ), weights=((16, 128, 1, 1), (16,), (16,), (16,), (64, 16, 1, 1), (64,), (64,), (64,), (64, 16, 3, 3), (64,), (64,), (64,)), parameters=12720
    (5): Fire(
      (group1): Sequential(
        (squeeze): Conv2d(128, 32, kernel_size=(1, 1), stride=(1, 1))
        (BatchNorm): BatchNorm2d(32, eps=1e-05, momentum=0.1, affine=True, track_running_stats=True)
        (squeeze_activation): ReLU(inplace)
      )
      (group2): Sequential(
        (expand1x1): Conv2d(32, 128, kernel_size=(1, 1), stride=(1, 1))
        (BatchNorm): BatchNorm2d(128, eps=1e-05, momentum=0.1, affine=True, track_running_stats=True)
        (expand1x1_activation): ReLU(inplace)
      )
      (group3): Sequential(
        (expand3x3): Conv2d(32, 128, kernel_size=(3, 3), stride=(1, 1), padding=(1, 1))
        (BatchNorm): BatchNorm2d(128, eps=1e-05, momentum=0.1, affine=True, track_running_stats=True)
        (expand3x3_activation): ReLU(inplace)
      )
    ), weights=((32, 128, 1, 1), (32,), (32,), (32,), (128, 32, 1, 1), (128,), (128,), (128,), (128, 32, 3, 3), (128,), (128,), (128,)), parameters=45920
    (6): Fire(
      (group1): Sequential(
        (squeeze): Conv2d(256, 32, kernel_size=(1, 1), stride=(1, 1))
        (BatchNorm): BatchNorm2d(32, eps=1e-05, momentum=0.1, affine=True, track_running_stats=True)
        (squeeze_activation): ReLU(inplace)
      )
      (group2): Sequential(
        (expand1x1): Conv2d(32, 128, kernel_size=(1, 1), stride=(1, 1))
        (BatchNorm): BatchNorm2d(128, eps=1e-05, momentum=0.1, affine=True, track_running_stats=True)
        (expand1x1_activation): ReLU(inplace)
      )
      (group3): Sequential(
        (expand3x3): Conv2d(32, 128, kernel_size=(3, 3), stride=(1, 1), padding=(1, 1))
        (BatchNorm): BatchNorm2d(128, eps=1e-05, momentum=0.1, affine=True, track_running_stats=True)
        (expand3x3_activation): ReLU(inplace)
      )
    ), weights=((32, 256, 1, 1), (32,), (32,), (32,), (128, 32, 1, 1), (128,), (128,), (128,), (128, 32, 3, 3), (128,), (128,), (128,)), parameters=50016
    (7): MaxPool2d(kernel_size=2, stride=2, padding=0, dilation=1, ceil_mode=True), weights=(), parameters=0
    (8): Fire(
      (group1): Sequential(
        (squeeze): Conv2d(256, 48, kernel_size=(1, 1), stride=(1, 1))
        (BatchNorm): BatchNorm2d(48, eps=1e-05, momentum=0.1, affine=True, track_running_stats=True)
        (squeeze_activation): ReLU(inplace)
      )
      (group2): Sequential(
        (expand1x1): Conv2d(48, 192, kernel_size=(1, 1), stride=(1, 1))
        (BatchNorm): BatchNorm2d(192, eps=1e-05, momentum=0.1, affine=True, track_running_stats=True)
        (expand1x1_activation): ReLU(inplace)
      )
      (group3): Sequential(
        (expand3x3): Conv2d(48, 192, kernel_size=(3, 3), stride=(1, 1), padding=(1, 1))
        (BatchNorm): BatchNorm2d(192, eps=1e-05, momentum=0.1, affine=True, track_running_stats=True)
        (expand3x3_activation): ReLU(inplace)
      )
    ), weights=((48, 256, 1, 1), (48,), (48,), (48,), (192, 48, 1, 1), (192,), (192,), (192,), (192, 48, 3, 3), (192,), (192,), (192,)), parameters=105744
    (9): Fire(
      (group1): Sequential(
        (squeeze): Conv2d(384, 48, kernel_size=(1, 1), stride=(1, 1))
        (BatchNorm): BatchNorm2d(48, eps=1e-05, momentum=0.1, affine=True, track_running_stats=True)
        (squeeze_activation): ReLU(inplace)
      )
      (group2): Sequential(
        (expand1x1): Conv2d(48, 192, kernel_size=(1, 1), stride=(1, 1))
        (BatchNorm): BatchNorm2d(192, eps=1e-05, momentum=0.1, affine=True, track_running_stats=True)
        (expand1x1_activation): ReLU(inplace)
      )
      (group3): Sequential(
        (expand3x3): Conv2d(48, 192, kernel_size=(3, 3), stride=(1, 1), padding=(1, 1))
        (BatchNorm): BatchNorm2d(192, eps=1e-05, momentum=0.1, affine=True, track_running_stats=True)
        (expand3x3_activation): ReLU(inplace)
      )
    ), weights=((48, 384, 1, 1), (48,), (48,), (48,), (192, 48, 1, 1), (192,), (192,), (192,), (192, 48, 3, 3), (192,), (192,), (192,)), parameters=111888
    (10): Fire(
      (group1): Sequential(
        (squeeze): Conv2d(384, 64, kernel_size=(1, 1), stride=(1, 1))
        (BatchNorm): BatchNorm2d(64, eps=1e-05, momentum=0.1, affine=True, track_running_stats=True)
        (squeeze_activation): ReLU(inplace)
      )
      (group2): Sequential(
        (expand1x1): Conv2d(64, 256, kernel_size=(1, 1), stride=(1, 1))
        (BatchNorm): BatchNorm2d(256, eps=1e-05, momentum=0.1, affine=True, track_running_stats=True)
        (expand1x1_activation): ReLU(inplace)
      )
      (group3): Sequential(
        (expand3x3): Conv2d(64, 256, kernel_size=(3, 3), stride=(1, 1), padding=(1, 1))
        (BatchNorm): BatchNorm2d(256, eps=1e-05, momentum=0.1, affine=True, track_running_stats=True)
        (expand3x3_activation): ReLU(inplace)
      )
    ), weights=((64, 384, 1, 1), (64,), (64,), (64,), (256, 64, 1, 1), (256,), (256,), (256,), (256, 64, 3, 3), (256,), (256,), (256,)), parameters=190144
    (11): MaxPool2d(kernel_size=2, stride=2, padding=0, dilation=1, ceil_mode=True), weights=(), parameters=0
    (12): Fire(
      (group1): Sequential(
        (squeeze): Conv2d(512, 64, kernel_size=(1, 1), stride=(1, 1))
        (BatchNorm): BatchNorm2d(64, eps=1e-05, momentum=0.1, affine=True, track_running_stats=True)
        (squeeze_activation): ReLU(inplace)
      )
      (group2): Sequential(
        (expand1x1): Conv2d(64, 256, kernel_size=(1, 1), stride=(1, 1))
        (BatchNorm): BatchNorm2d(256, eps=1e-05, momentum=0.1, affine=True, track_running_stats=True)
        (expand1x1_activation): ReLU(inplace)
      )
      (group3): Sequential(
        (expand3x3): Conv2d(64, 256, kernel_size=(3, 3), stride=(1, 1), padding=(1, 1))
        (BatchNorm): BatchNorm2d(256, eps=1e-05, momentum=0.1, affine=True, track_running_stats=True)
        (expand3x3_activation): ReLU(inplace)
      )
    ), weights=((64, 512, 1, 1), (64,), (64,), (64,), (256, 64, 1, 1), (256,), (256,), (256,), (256, 64, 3, 3), (256,), (256,), (256,)), parameters=198336
  ), weights=((96, 3, 3, 3), (96,), (32, 96, 1, 1), (32,), (32,), (32,), (64, 32, 1, 1), (64,), (64,), (64,), (64, 32, 3, 
…
