…
tion': 1, 'number_of_dataset_classes': 100, 'normal_classes': [0, 1, 2, 3, 4, 5, 8, 10, 11, 12, 14, 15, 17, 19, 22, 23, 29, 30, 31, 34, 35, 41, 44, 45, 52, 54, 56, 59, 61, 62, 64, 65, 68, 69, 74, 76, 77, 78, 79, 81, 82, 85, 86, 87, 88, 89, 93, 95, 97, 99], 'execution_path': 'artifacts/cifar100/vgg19bn/seed~1234+nmc~50/exec1'}

$$$$$$$$$$$$$$$$$$$$$$$$$$$$$$$$$$$$$$$$$$$$$$$$$$$
TRAINSET LOADER SIZE: ====>>>>  25000
VALIDSET LOADER SIZE: ====>>>>  5000
$$$$$$$$$$$$$$$$$$$$$$$$$$$$$$$$$$$$$$$$$$$$$$$$$$$

DATASET: cifar100
=> creating model 'vgg19bn'

MODEL: VGG(
  (features): Sequential(
    (0): Conv2d(3, 64, kernel_size=(3, 3), stride=(1, 1), padding=(1, 1))
    (1): BatchNorm2d(64, eps=1e-05, momentum=0.1, affine=True, track_running_stats=True)
    (2): ReLU(inplace)
    (3): Conv2d(64, 64, kernel_size=(3, 3), stride=(1, 1), padding=(1, 1))
    (4): BatchNorm2d(64, eps=1e-05, momentum=0.1, affine=True, track_running_stats=True)
    (5): ReLU(inplace)
    (6): MaxPool2d(kernel_size=2, stride=2, padding=0, dilation=1, ceil_mode=False)
    (7): Conv2d(64, 128, kernel_size=(3, 3), stride=(1, 1), padding=(1, 1))
    (8): BatchNorm2d(128, eps=1e-05, momentum=0.1, affine=True, track_running_stats=True)
    (9): ReLU(inplace)
    (10): Conv2d(128, 128, kernel_size=(3, 3), stride=(1, 1), padding=(1, 1))
    (11): BatchNorm2d(128, eps=1e-05, momentum=0.1, affine=True, track_running_stats=True)
    (12): ReLU(inplace)
    (13): MaxPool2d(kernel_size=2, stride=2, padding=0, dilation=1, ceil_mode=False)
    (14): Conv2d(128, 256, kernel_size=(3, 3), stride=(1, 1), padding=(1, 1))
    (15): BatchNorm2d(256, eps=1e-05, momentum=0.1, affine=True, track_running_stats=True)
    (16): ReLU(inplace)
    (17): Conv2d(256, 256, kernel_size=(3, 3), stride=(1, 1), padding=(1, 1))
    (18): BatchNorm2d(256, eps=1e-05, momentum=0.1, affine=True, track_running_stats=True)
    (19): ReLU(inplace)
    (20): Conv2d(256, 256, kernel_size=(3, 3), stride=(1, 1), padding=(1, 1))
    (21): BatchNorm2d(256, eps=1e-05, momentum=0.1, affine=True, track_running_stats=True)
    (22): ReLU(inplace)
    (23): Conv2d(256, 256, kernel_size=(3, 3), stride=(1, 1), padding=(1, 1))
    (24): BatchNorm2d(256, eps=1e-05, momentum=0.1, affine=True, track_running_stats=True)
    (25): ReLU(inplace)
    (26): MaxPool2d(kernel_size=2, stride=2, padding=0, dilation=1, ceil_mode=False)
    (27): Conv2d(256, 512, kernel_size=(3, 3), stride=(1, 1), padding=(1, 1))
    (28): BatchNorm2d(512, eps=1e-05, momentum=0.1, affine=True, track_running_stats=True)
    (29): ReLU(inplace)
    (30): Conv2d(512, 512, kernel_size=(3, 3), stride=(1, 1), padding=(1, 1))
    (31): BatchNorm2d(512, eps=1e-05, momentum=0.1, affine=True, track_running_stats=True)
    (32): ReLU(inplace)
    (33): Conv2d(512, 512, kernel_size=(3, 3), stride=(1, 1), padding=(1, 1))
    (34): BatchNorm2d(512, eps=1e-05, momentum=0.1, affine=True, track_running_stats=True)
    (35): ReLU(inplace)
    (36): Conv2d(512, 512, kernel_size=(3, 3), stride=(1, 1), padding=(1, 1))
    (37): BatchNorm2d(512, eps=1e-05, momentum=0.1, affine=True, track_running_stats=True)
    (38): ReLU(inplace)
    (39): MaxPool2d(kernel_size=2, stride=2, padding=0, dilation=1, ceil_mode=False)
    (40): Conv2d(512, 512, kernel_size=(3, 3), stride=(1, 1), padding=(1, 1))
    (41): BatchNorm2d(512, eps=1e-05, momentum=0.1, affine=True, track_running_stats=True)
    (42): ReLU(inplace)
    (43): Conv2d(512, 512, kernel_size=(3, 3), stride=(1, 1), padding=(1, 1))
    (44): BatchNorm2d(512, eps=1e-05, momentum=0.1, affine=True, track_running_stats=True)
    (45): ReLU(inplace)
    (46): Conv2d(512, 512, kernel_size=(3, 3), stride=(1, 1), padding=(1, 1))
    (47): BatchNorm2d(512, eps=1e-05, momentum=0.1, affine=True, track_running_stats=True)
    (48): ReLU(inplace)
    (49): Conv2d(512, 512, kernel_size=(3, 3), stride=(1, 1), padding=(1, 1))
    (50): BatchNorm2d(512, eps=1e-05, momentum=0.1, affine=True, track_running_stats=True)
    (51): ReLU(inplace)
    (52): MaxPool2d(kernel_size=2, stride=2, padding=0, dilation=1, ceil_mode=False)
    (53): AvgPool2d(kernel_size=1, stride=1, padding=0)
  )
  (classifier): Sequential(
    (0): Linear(in_features=512, out_features=50, bias=True)
  )
)

################ TRAINING ################

######## EPOCH: 1 OF 150 ########

LEARNING RATE:	 0.1
Train Epoch: [1][16/196]	Data 0.000096	Time 0.089253	Loss 5.2055	Entropy 3.4806		Acc1 2.69	Acc5 11.38
Train Epoch: [1][32/196]	Data 0.000097	Time 0.089265	Loss 4.6975	Entropy 3.6583		Acc1 2.42	Acc5 10.84
Train Epoch: [1][48/196]	Data 0.003638	Time 0.088784	Loss 4.4725	Entropy 3.7161		Acc1 2.23	Acc5 10.63
…
                             Normalize(mean=(0.507, 0.486, 0.44), std=(0.267, 0.256, 0.276))
                         )
    Target Transforms (if any): None
LOGITS:		 torch.Size([10000, 50])
TARGETS:	 torch.Size([10000])
save artifacts/cifar100/vgg19bn/seed~1234+nmc~50/exec1/logits/best_model_test.pth


################ COMPUTING INFERENCE TIMES AND MODEL WEIGHTS, BIAS AND PARAMETERS ################

COMPUTING INFERENCE TIME: CPU

COMPUTING INFERENCE TIME: GPU

MEAN CPU INFERENCE TIME (MILISECONDS):	17.5893
MEAN GPU INFERENCE TIME (MILISECONDS):	1.0105

NUMBER OF WEIGHTS, BIAS AND PARAMETERS:
VGG (
  (features): Sequential (
    (0): Conv2d(3, 64, kernel_size=(3, 3), stride=(1, 1), padding=(1, 1)), weights=((64, 3, 3, 3), (64,)), parameters=1792
    (1): BatchNorm2d(64, eps=1e-05, momentum=0.1, affine=True, track_running_stats=True), weights=((64,), (64,)), parameters=128
    (2): ReLU(inplace), weights=(), parameters=0
    (3): Conv2d(64, 64, kernel_size=(3, 3), stride=(1, 1), padding=(1, 1)), weights=((64, 64, 3, 3), (64,)), parameters=36928
    (4): BatchNorm2d(64, eps=1e-05, momentum=0.1, affine=True, track_running_stats=True), weights=((64,), (64,)), parameters=128
    (5): ReLU(inplace), weights=(), parameters=0
    (6): MaxPool2d(kernel_size=2, stride=2, padding=0, dilation=1, ceil_mode=False), weights=(), parameters=0
    (7): Conv2d(64, 128, kernel_size=(3, 3), stride=(1, 1), padding=(1, 1)), weights=((128, 64, 3, 3), (128,)), parameters=73856
    (8): BatchNorm2d(128, eps=1e-05, momentum=0.1, affine=True, track_running_stats=True), weights=((128,), (128,)), parameters=256
    (9): ReLU(inplace), weights=(), parameters=0
    (10): Conv2d(128, 128, kernel_size=(3, 3), stride=(1, 1), padding=(1, 1)), weights=((128, 128, 3, 3), (128,)), parameters=147584
    (11): BatchNorm2d(128, eps=1e-05, momentum=0.1, affine=True, track_running_stats=True), weights=((128,), (128,)), parameters=256
    (12): ReLU(inplace), weights=(), parameters=0
    (13): MaxPool2d(kernel_size=2, stride=2, padding=0, dilation=1, ceil_mode=False), weights=(), parameters=0
    (14): Conv2d(128, 256, kernel_size=(3, 3), stride=(1, 1), padding=(1, 1)), weights=((256, 128, 3, 3), (256,)), parameters=295168
    (15): BatchNorm2d(256, eps=1e-05, momentum=0.1, affine=True, track_running_stats=True), weights=((256,), (256,)), parameters=512
    (16): ReLU(inplace), weights=(), parameters=0
    (17): Conv2d(256, 256, kernel_size=(3, 3), stride=(1, 1), padding=(1, 1)), weights=((256, 256, 3, 3), (256,)), parameters=590080
    (18): BatchNorm2d(256, eps=1e-05, momentum=0.1, affine=True, track_running_stats=True), weights=((256,), (256,)), parameters=512
    (19): ReLU(inplace), weights=(), parameters=0
    (20): Conv2d(256, 256, kernel_size=(3, 3), stride=(1, 1), padding=(1, 1)), weights=((256, 256, 3, 3), (256,)), parameters=590080
    (21): BatchNorm2d(256, eps=1e-05, momentum=0.1, affine=True, track_running_stats=True), weights=((256,), (256,)), parameters=512
    (22): ReLU(inplace), weights=(), parameters=0
    (23): Conv2d(256, 256, kernel_size=(3, 3), stride=(1, 1), padding=(1, 1)), weights=((256, 256, 3, 3), (256,)), parameters=590080
    (24): BatchNorm2d(256, eps=1e-05, momentum=0.1, affine=True, track_running_stats=True), weights=((256,), (256,)), parameters=512
    (25): ReLU(inplace), weights=(), parameters=0
    (26): MaxPool2d(kernel_size=2, stride=2, padding=0, dilation=1, ceil_mode=False), weights=(), parameters=0
    (27): Conv2d(256, 512, kernel_size=(3, 3), stride=(1, 1), padding=(1, 1)), weights=((512, 256, 3, 3), (512,)), parameters=1180160
    (28): BatchNorm2d(512, eps=1e-05, momentum=0.1, affine=True, track_running_stats=True), weights=((512,), (512,)), parameters=1024
    (29): ReLU(inplace), weights=(), parameters=0
    (30): Conv2d(512, 512, kernel_size=(3, 3), stride=(1, 1), padding=(1, 1)), weights=((512, 512, 3, 3), (512,)), parameters=2359808
    (31): BatchNorm2d(512, eps=1e-05, momentum=0.1, affine=True, track_running_stats=True), weights=((512,), (512,)), parameters=1024
    (32): ReLU(inplace), weights=(), parameters=0
    (33): Conv2d(512, 512, kernel_size=(3, 3), stride=(1, 1), padding=(1, 1)), weights=((512, 512, 3, 3), (512,)), parameters=2359808
    (34): BatchNorm2d(512, eps=1e-05, momentum=0.1, affine=True, track_running_stats=True), weights=((512,), (512,)), parameters=1024
    (35): ReLU(inplace), weights=(), parameters=0
    (36): Conv2d(512, 512, kernel_size=(3, 3), stride=(1, 1), padding=(1, 1)), weights=((512, 512, 3, 3), (512,)), parameters=2359808
    (37): BatchNorm2d(512, eps=1e-05, momentum=0.1, affine=True, track_running_stats=True), weights=((512,), (512,)), parameters=1024
    (38): ReLU(inplace), weights=(), parameters=0
    (39): MaxPool2d(kernel_size=2, stride=2, padding=0, dilation=1, ceil_mode=False), weights=(), parameters=0
    (40): Conv2d(512, 512, kernel_size=(3, 3), stride=(1, 1), padding=(1, 1)), weights=((512, 512, 3, 3), (512,)), parameters=2359808
    (41): BatchNorm2d(512, eps=1e-05, momentum=0.1, affine=True, track_running_stats=True), weights=((512,), (512,)), parameters=1024
    (42): ReLU(inplace), weights=(), parameters=0
    (43): Conv2d(512, 512, kernel_size=(3, 3), stride=(1, 1), padding=(1, 1)), weights=((512, 512, 3, 3), (512,)), parameters=2359808
    (44): BatchNorm2d(512, eps=1e-05, momentum=0.1, affine=True, track_running_stats=True), weights=((512,), (512,)), parameters=1024
    (45): ReLU(inplace), weights=(), parameters=0
    (46): Conv2d(512, 512, kernel_size=(3, 3), stride=(1, 1), padding=(1, 1)), weights=((512, 512, 3, 3), (512,)), parameters=2359808
    (47): BatchNorm2d(512, eps=1e-05, momentum=0.1, affine=True, track_running_stats=True), weights=((512,), (512,)), parameters=1024
    (48): ReLU(inplace), weights=(), parameters=0
    (49): Conv2d(512, 512, kernel_size=(3, 3), stride=(1, 1), padding=(1, 1)), weights=((512, 512, 3, 3), (512,)), parameters=2359808
    (50): BatchNorm2d(512, eps=1e-05, momentum=0.1, affine=True, track_running_stats=True), weights=((512,), (512,)), parameters=1024
    (51): ReLU(inplace), weights=(), parameters=0
    (52): MaxPool2d(kernel_size=2, stride=2, padding=0, dilation=1, ceil_mode=False), weights=(), parameters=0
    (53): AvgPool2d(kernel_size=1, stride=1, padding=0), weights=(), parameters=0
  ), weights=((64, 3, 3, 3), (64,), (64,), (6
…
