…
ch': 'alexnet_', 'base_seed': 1230, 'number_of_model_classes': 100, 'regularization_type': None, 'regularization_value': 0, 'experiment_path': 'artifacts/cifar100/alexnet_/baseline', 'execution': 1, 'execution_seed': 1231, 'number_of_dataset_classes': 100, 'execution_path': 'artifacts/cifar100/alexnet_/baseline/exec1'}

$$$$$$$$$$$$$$$$$$$$$$$$$$$$$$$$$$$$$$$$$$$$$$$$$$$
TRAINSET LOADER SIZE: ====>>>>  50000
VALIDSET LOADER SIZE: ====>>>>  10000
$$$$$$$$$$$$$$$$$$$$$$$$$$$$$$$$$$$$$$$$$$$$$$$$$$$

DATASET: cifar100
=> creating model 'alexnet_'

MODEL: AlexNet_(
  (features): Sequential(
    (0): Conv2d(3, 64, kernel_size=(3, 3), stride=(1, 1), padding=(1, 1))
    (1): ReLU(inplace)
    (2): MaxPool2d(kernel_size=3, stride=2, padding=0, dilation=1, ceil_mode=True)
    (3): Conv2d(64, 192, kernel_size=(3, 3), stride=(1, 1), padding=(1, 1))
    (4): ReLU(inplace)
    (5): MaxPool2d(kernel_size=3, stride=2, padding=0, dilation=1, ceil_mode=True)
    (6): Conv2d(192, 384, kernel_size=(3, 3), stride=(1, 1), padding=(1, 1))
    (7): ReLU(inplace)
    (8): Conv2d(384, 256, kernel_size=(3, 3), stride=(1, 1), padding=(1, 1))
    (9): ReLU(inplace)
    (10): Conv2d(256, 256, kernel_size=(3, 3), stride=(1, 1), padding=(1, 1))
    (11): ReLU(inplace)
    (12): MaxPool2d(kernel_size=3, stride=2, padding=0, dilation=1, ceil_mode=True)
  )
  (classifier): Sequential(
    (0): Linear(in_features=4096, out_features=4096, bias=True)
    (1): BatchNorm1d(4096, eps=1e-05, momentum=0.1, affine=True, track_running_stats=True)
    (2): ReLU(inplace)
    (3): Linear(in_features=4096, out_features=4096, bias=True)
    (4): BatchNorm1d(4096, eps=1e-05, momentum=0.1, affine=True, track_running_stats=True)
    (5): ReLU(inplace)
    (6): Linear(in_features=4096, out_features=100, bias=True)
  )
)

################ TRAINING ################

######## EPOCH: 1 OF 150 ########

LEARNING RATE:	 0.05
Train Epoch: [1][16/391]	Data 0.000779	Time 0.049407	Loss 5.0543	Entropy 3.7894		Acc1 2.64	Acc5 10.21
Train Epoch: [1][32/391]	Data 0.000860	Time 0.049343	Loss 4.8846	Entropy 3.8814		Acc1 3.27	Acc5 12.55
Train Epoch: [1][48/391]	Data 0.000679	Time 0.049240	Loss 4.7005	Entropy 3.9292		Acc1 3.92	Acc5 15.06
…
 [0.0000 0.8200 0.0000 ... 0.0000 0.0000 0.0000]
 [0.0000 0.0200 0.5400 ... 0.0000 0.0500 0.0000]
 ...
 [0.0000 0.0000 0.0000 ... 0.7400 0.0000 0.0000]
 [0.0100 0.0100 0.0500 ... 0.0200 0.5000 0.0000]
 [0.0000 0.0100 0.0000 ... 0.0000 0.0000 0.7400]]

#### VALID: 69.920

!$$$$ BEST: 70.110


################ COMPUTING INFERENCE TIMES AND MODEL WEIGHTS, BIAS AND PARAMETERS ################

COMPUTING INFERENCE TIME: CPU

COMPUTING INFERENCE TIME: GPU

MEAN CPU INFERENCE TIME (MILISECONDS):	15.8353
MEAN GPU INFERENCE TIME (MILISECONDS):	0.3435

NUMBER OF WEIGHTS, BIAS AND PARAMETERS:
AlexNet_ (
  (features): Sequential (
    (0): Conv2d(3, 64, kernel_size=(3, 3), stride=(1, 1), padding=(1, 1)), weights=((64, 3, 3, 3), (64,)), parameters=1792
    (1): ReLU(inplace), weights=(), parameters=0
    (2): MaxPool2d(kernel_size=3, stride=2, padding=0, dilation=1, ceil_mode=True), weights=(), parameters=0
    (3): Conv2d(64, 192, kernel_size=(3, 3), stride=(1, 1), padding=(1, 1)), weights=((192, 64, 3, 3), (192,)), parameters=110784
    (4): ReLU(inplace), weights=(), parameters=0
    (5): MaxPool2d(kernel_size=3, stride=2, padding=0, dilation=1, ceil_mode=True), weights=(), parameters=0
    (6): Conv2d(192, 384, kernel_size=(3, 3), stride=(1, 1), padding=(1, 1)), weights=((384, 192, 3, 3), (384,)), parameters=663936
    (7): ReLU(inplace), weights=(), parameters=0
    (8): Conv2d(384, 256, kernel_size=(3, 3), stride=(1, 1), padding=(1, 1)), weights=((256, 384, 3, 3), (256,)), parameters=884992
    (9): ReLU(inplace), weights=(), parameters=0
    (10): Conv2d(256, 256, kernel_size=(3, 3), stride=(1, 1), padding=(1, 1)), weights=((256, 256, 3, 3), (256,)), parameters=590080
    (11): ReLU(inplace), weights=(), parameters=0
    (12): MaxPool2d(kernel_size=3, stride=2, padding=0, dilation=1, ceil_mode=True), weights=(), parameters=0
  ), weights=((64, 3, 3, 3), (64,), (192, 64, 3, 3), (192,), (384, 192, 3, 3), (384,), (256, 384, 3, 3), (256,), (256, 256, 3, 3), (256,)), parameters=2251584
  (classifier): Sequential (
    (0): Linear(in_features=4096, out_features=4096, bias=True), weights=((4096, 4096), (4096,)), parameters=16781312
    (1): BatchNorm1d(4096, eps=1e-05, momentum=0.1, affine=True, track_running_stats=True), weights=((4096,), (4096,)), parameters=8192
    (2): ReLU(inplace), weights=(), parameters=0
    (3): Linear(in_features=4096, out_features=4096, bias=True), weights=((4096, 4096), (4096,)), parameters=16781312
    (4): BatchNorm1d(4096, eps=1e-05, momentum=0.1, affine=True, track_running_stats=True), weights=((4096,), (4096,)), parameters=8192
    (5): ReLU(inplace), weights=(), parameters=0
    (6): Linear(in_features=4096, out_features=100, bias=True), weights=((100, 4096), (100,)), parameters=409700
  ), weights=((4096, 4096), (4096,), (4096,), (4096,), (4096, 4096), (4096,), (4096,), (4096,), (100, 4096), (100,)), parameters=33988708
) 


################ EXECUTION: 2 OF 5 ################
EXECUTION SEED: 1232
Files already downloaded and verified
Files already downloaded and verified

ARGUMENTS:
…
