…
ezenet_', 'base_seed': 1230, 'number_of_model_classes': 10, 'regularization_type': None, 'regularization_value': 0, 'experiment_path': 'artifacts/cifar10/squeezenet_/baseline', 'execution': 1, 'execution_seed': 1231, 'number_of_dataset_classes': 10, 'execution_path': 'artifacts/cifar10/squeezenet_/baseline/exec1'}

$$$$$$$$$$$$$$$$$$$$$$$$$$$$$$$$$$$$$$$$$$$$$$$$$$$
TRAINSET LOADER SIZE: ====>>>>  50000
VALIDSET LOADER SIZE: ====>>>>  10000
$$$$$$$$$$$$$$$$$$$$$$$$$$$$$$$$$$$$$$$$$$$$$$$$$$$

DATASET: cifar10
=> creating model 'squeezenet_'

MODEL: SqueezeNet_(
  (features): Sequential(
    (0): Conv2d(3, 96, kernel_size=(3, 3), stride=(1, 1), padding=(1, 1))
    (1): ReLU(inplace)
    (2): MaxPool2d(kernel_size=2, stride=2, padding=0, dilation=1, ceil_mode=True)
    (3): Fire_(
      (group1): Sequential(
        (squeeze): Conv2d(96, 32, kernel_size=(1, 1), stride=(1, 1))
        (squeeze_activation): ReLU(inplace)
      )
      (group2): Sequential(
        (expand1x1): Conv2d(32, 64, kernel_size=(1, 1), stride=(1, 1))
        (expand1x1_activation): ReLU(inplace)
      )
      (group3): Sequential(
        (expand3x3): Conv2d(32, 64, kernel_size=(3, 3), stride=(1, 1), padding=(1, 1))
        (expand3x3_activation): ReLU(inplace)
      )
    )
    (4): Fire_(
      (group1): Sequential(
        (squeeze): Conv2d(128, 16, kernel_size=(1, 1), stride=(1, 1))
        (squeeze_activation): ReLU(inplace)
      )
      (group2): Sequential(
        (expand1x1): Conv2d(16, 64, kernel_size=(1, 1), stride=(1, 1))
        (expand1x1_activation): ReLU(inplace)
      )
      (group3): Sequential(
        (expand3x3): Conv2d(16, 64, kernel_size=(3, 3), stride=(1, 1), padding=(1, 1))
        (expand3x3_activation): ReLU(inplace)
      )
    )
    (5): Fire_(
      (group1): Sequential(
        (squeeze): Conv2d(128, 32, kernel_size=(1, 1), stride=(1, 1))
        (squeeze_activation): ReLU(inplace)
      )
      (group2): Sequential(
        (expand1x1): Conv2d(32, 128, kernel_size=(1, 1), stride=(1, 1))
        (expand1x1_activation): ReLU(inplace)
      )
      (group3): Sequential(
        (expand3x3): Conv2d(32, 128, kernel_size=(3, 3), stride=(1, 1), padding=(1, 1))
        (expand3x3_activation): ReLU(inplace)
      )
    )
    (6): Fire_(
      (group1): Sequential(
        (squeeze): Conv2d(256, 32, kernel_size=(1, 1), stride=(1, 1))
        (squeeze_activation): ReLU(inplace)
      )
      (group2): Sequential(
        (expand1x1): Conv2d(32, 128, kernel_size=(1, 1), stride=(1, 1))
        (expand1x1_activation): ReLU(inplace)
      )
      (group3): Sequential(
        (expand3x3): Conv2d(32, 128, kernel_size=(3, 3), stride=(1, 1), padding=(1, 1))
        (expand3x3_activation): ReLU(inplace)
      )
    )
    (7): MaxPool2d(kernel_size=2, stride=2, padding=0, dilation=1, ceil_mode=True)
    (8): Fire_(
      (group1): Sequential(
        (squeeze): Conv2d(256, 48, kernel_size=(1, 1), stride=(1, 1))
        (squeeze_activation): ReLU(inplace)
      )
      (group2): Sequential(
        (expand1x1): Conv2d(48, 192, kernel_size=(1, 1), stride=(1, 1))
        (expand1x1_activation): ReLU(inplace)
      )
      (group3): Sequential(
        (expand3x3): Conv2d(48, 192, kernel_size=(3, 3), stride=(1, 1), padding=(1, 1))
        (expand3x3_activation): ReLU(inplace)
      )
    )
    (9): Fire_(
      (group1): Sequential(
        (squeeze): Conv2d(384, 48, kernel_size=(1, 1), stride=(1, 1))
        (squeeze_activation): ReLU(inplace)
      )
      (group2): Sequential(
        (expand1x1): Conv2d(48, 192, kernel_size=(1, 1), stride=(1, 1))
        (expand1x1_activation): ReLU(inplace)
      )
      (group3): Sequential(
        (expand3x3): Conv2d(48, 192, kernel_size=(3, 3), stride=(1, 1), padding=(1, 1))
        (expand3x3_activation): ReLU(inplace)
      )
    )
    (10): Fire_(
      (group1): Sequential(
        (squeeze): Conv2d(384, 64, kernel_size=(1, 1), stride=(1, 1))
        (squeeze_activation): ReLU(inplace)
      )
      (group2): Sequential(
        (expand1x1): Conv2d(64, 256, kernel_size=(1, 1), stride=(1, 1))
        (expand1x1_activation): ReLU(inplace)
      )
      (group3): Sequential(
        (expand3x3): Conv2d(64, 256, kernel_size=(3, 3), stride=(1, 1), padding=(1, 1))
        (expand3x3_activation): ReLU(inplace)
      )
    )
    (11): MaxPool2d(kernel_size=2, stride=2, padding=0, dilation=1, ceil_mode=True)
    (12): Fire_(
      (group1): Sequential(
        (squeeze): Conv2d(512, 64, kernel_size=(1, 1), stride=(1, 1))
        (squeeze_activation): ReLU(inplace)
      )
      (group2): Sequential(
        (expand1x1): Conv2d(64, 256, kernel_size=(1, 1), stride=(1, 1))
        (expand1x1_activation): ReLU(inplace)
      )
      (group3): Sequential(
        (expand3x3): Conv2d(64, 256, kernel_size=(3, 3), stride=(1, 1), padding=(1, 1))
        (expand3x3_activation): ReLU(inplace)
      )
    )
  )
  (classifier): Sequential(
    (0): Dropout(p=0.5)
    (1): Conv2d(512, 10, kernel_size=(1, 1), stride=(1, 1))
    (2): ReLU(inplace)
    (3): AvgPool2d(kernel_size=4, stride=4, padding=0)
  )
)

################ TRAINING ################

######## EPOCH: 1 OF 120 ########

LEARNING RATE:	 0.05
Train Epoch: [1][16/391]	Data 0.000907	Time 0.023296	Loss 2.3054	Entropy 2.2991		Acc1 10.16	Acc5 50.29
Train Epoch: [1][32/391]	Data 0.000910	Time 0.021217	Loss 2.3040	Entropy 2.3009		Acc1 9.77	Acc5 49.61
…
Valid Epoch: [120][64/79]	Data 0.000665	Time 0.007671	Entropy 0.2642		Acc1 86.24	Acc5 99.33

CONFUSION:
 [[… #### VALID: 86.030

!+NEW BEST+ 86.030 IN EPOCH 120!!! SAVING... artifacts/cifar10/squeezenet_/baseline/exec1/best_model.pth.tar

!$$$$ BEST: 86.030


################ COMPUTING INFERENCE TIMES AND MODEL WEIGHTS, BIAS AND PARAMETERS ################

COMPUTING INFERENCE TIME: CPU

COMPUTING INFERENCE TIME: GPU

MEAN CPU INFERENCE TIME (MILISECONDS):	3.4740
MEAN GPU INFERENCE TIME (MILISECONDS):	1.1625

NUMBER OF WEIGHTS, BIAS AND PARAMETERS:
SqueezeNet_ (
  (features): Sequential (
    (0): Conv2d(3, 96, kernel_size=(3, 3), stride=(1, 1), padding=(1, 1)), weights=((96, 3, 3, 3), (96,)), parameters=2688
    (1): ReLU(inplace), weights=(), parameters=0
    (2): MaxPool2d(kernel_size=2, stride=2, padding=0, dilation=1, ceil_mode=True), weights=(), parameters=0
    (3): Fire_(
      (group1): Sequential(
        (squeeze): Conv2d(96, 32, kernel_size=(1, 1), stride=(1, 1))
        (squeeze_activation): ReLU(inplace)
      )
      (group2): Sequential(
        (expand1x1): Conv2d(32, 64, kernel_size=(1, 1), stride=(1, 1))
        (expand1x1_activation): ReLU(inplace)
      )
      (group3): Sequential(
        (expand3x3): Conv2d(32, 64, kernel_size=(3, 3), stride=(1, 1), padding=(1, 1))
        (expand3x3_activation): ReLU(inplace)
      )
    ), weights=((32, 96, 1, 1), (32,), (64, 32, 1, 1), (64,), (64, 32, 3, 3), (64,)), parameters=23712
    (4): Fire_(
      (group1): Sequential(
        (squeeze): Conv2d(128, 16, kernel_size=(1, 1), stride=(1, 1))
        (squeeze_activation): ReLU(inplace)
      )
      (group2): Sequential(
        (expand1x1): Conv2d(16, 64, kernel_size=(1, 1), stride=(1, 1))
        (expand1x1_activation): ReLU(inplace)
      )
      (group3): Sequential(
        (expand3x3): Conv2d(16, 64, kernel_size=(3, 3), stride=(1, 1), padding=(1, 1))
        (expand3x3_activation): ReLU(inplace)
      )
    ), weights=((16, 128, 1, 1), (16,), (64, 16, 1, 1), (64,), (64, 16, 3, 3), (64,)), parameters=12432
    (5): Fire_(
      (group1): Sequential(
        (squeeze): Conv2d(128, 32, kernel_size=(1, 1), stride=(1, 1))
        (squeeze_activation): ReLU(inplace)
      )
      (group2): Sequential(
        (expand1x1): Conv2d(32, 128, kernel_size=(1, 1), stride=(1, 1))
        (expand1x1_activation): ReLU(inplace)
      )
      (group3): Sequential(
        (expand3x3): Conv2d(32, 128, kernel_size=(3, 3), stride=(1, 1), padding=(1, 1))
        (expand3x3_activation): ReLU(inplace)
      )
    ), weights=((32, 128, 1, 1), (32,), (128, 32, 1, 1), (128,), (128, 32, 3, 3), (128,)), parameters=45344
    (6): Fire_(
      (group1): Sequential(
        (squeeze): Conv2d(256, 32, kernel_size=(1, 1), stride=(1, 1))
        (squeeze_activation): ReLU(inplace)
      )
      (group2): Sequential(
        (expand1x1): Conv2d(32, 128, kernel_size=(1, 1), stride=(1, 1))
        (expand1x1_activation): ReLU(inplace)
      )
      (group3): Sequential(
        (expand3x3): Conv2d(32, 128, kernel_size=(3, 3), stride=(1, 1), padding=(1, 1))
        (expand3x3_activation): ReLU(inplace)
      )
    ), weights=((32, 256, 1, 1), (32,), (128, 32, 1, 1), (128,), (128, 32, 3, 3), (128,)), parameters=49440
    (7): MaxPool2d(kernel_size=2, stride=2, padding=0, dilation=1, ceil_mode=True), weights=(), parameters=0
    (8): Fire_(
      (group1): Sequential(
        (squeeze): Conv2d(256, 48, kernel_size=(1, 1), stride=(1, 1))
        (squeeze_activation): ReLU(inplace)
      )
      (group2): Sequential(
        (expand1x1): Conv2d(48, 192, kernel_size=(1, 1), stride=(1, 1))
        (expand1x1_activation): ReLU(inplace)
      )
      (group3): Sequential(
        (expand3x3): Conv2d(48, 192, kernel_size=(3, 3), stride=(1, 1), padding=(1, 1))
        (expand3x3_activation): ReLU(inplace)
      )
    ), weights=((48, 256, 1, 1), (48,), (192, 48, 1, 1), (192,), (192, 48, 3, 3), (192,)), parameters=104880
    (9): Fire_(
      (group1): Sequential(
        (squeeze): Conv2d(384, 48, kernel_size=(1, 1), stride=(1, 1))
        (squeeze_activation): ReLU(inplace)
      )
      (group2): Sequential(
        (expand1x1): Conv2d(48, 192, kernel_size=(1, 1), stride=(1, 1))
        (expand1x1_activation): ReLU(inplace)
      )
      (group3): Sequential(
        (expand3x3): Conv2d(48, 192, kernel_size=(3, 3), stride=(1, 1), padding=(1, 1))
        (expand3x3_activation): ReLU(inplace)
      )
    ), weights=((48, 384, 1, 1), (48,), (192, 48, 1, 1), (192,), (192, 48, 3, 3), (192,)), parameters=111024
    (10): Fire_(
      (group1): Sequential(
        (squeeze): Conv2d(384, 64, kernel_size=(1, 1), stride=(1, 1))
        (squeeze_activation): ReLU(inplace)
      )
      (group2): Sequential(
        (expand1x1): Conv2d(64, 256, kernel_size=(1, 1), stride=(1, 1))
        (expand1x1_activation): ReLU(inplace)
      )
      (group3): Sequential(
        (expand3x3): Conv2d(64, 256, kernel_size=(3, 3), stride=(1, 1), padding=(1, 1))
        (expand3x3_activation): ReLU(inplace)
      )
    ), weights=((64, 384, 1, 1), (64,), (256, 64, 1, 1), (256,), (256, 64, 3, 3), (256,)), parameters=188992
    (11): MaxPool2d(kernel_size=2, stride=2, padding=0, dilation=1, ceil_mode=True), weights=(), parameters=0
    (12): Fire_(
      (group1): Sequential(
        (squeeze): Conv2d(512, 64, kernel_size=(1, 1), stride=(1, 1))
        (squeeze_activation): ReLU(inplace)
      )
      (group2): Sequential(
        (expand1x1): Conv2d(64, 256, kernel_size=(1, 1), stride=(1, 1))
        (expand1x1_activation): ReLU(inplace)
      )
      (group3): Sequential(
        (expand3x3): Conv2d(64, 256, kernel_size=(3, 3), stride=(1, 1), padding=(1, 1))
        (expand3x3_activation): ReLU(inplace)
      )
    ), weights=((64, 512, 1, 1), (64,), (256, 64, 1, 1), (256,), (256, 64, 3, 3), (256,)), parameters=197184
  ), weights=((96, 3, 3, 3), (96,), (32, 96, 1, 1), (32,), (64, 32, 1, 1), (64,), (64, 32, 3, 3), (64,), (16, 128, 1, 1), (16,), (64, 16, 1, 1), (64,), (64, 16, 3, 3), (64,), (3
…
