…
5, 36, 37, 38, 39, 40, 41, 42, 43, 44, 45, 46, 47, 48, 49, 50, 51, 52, 53, 54, 55, 56, 57, 58, 59, 60, 61, 62, 63, 64, 65, 66, 67, 68, 69, 70, 71, 72, 73, 74, 75, 76, 77, 78, 79, 80, 81, 82, 83, 84, 85, 86, 87, 88, 89, 90, 91, 92, 93, 94, 95, 96, 97, 98, 99], 'execution_path': 'artifacts/cifar100/alexnet/baseline/exec1'}

$$$$$$$$$$$$$$$$$$$$$$$$$$$$$$$$$$$$$$$$$$$$$$$$$$$
TRAINSET LOADER SIZE: ====>>>>  50000
VALIDSET LOADER SIZE: ====>>>>  10000
$$$$$$$$$$$$$$$$$$$$$$$$$$$$$$$$$$$$$$$$$$$$$$$$$$$

DATASET: cifar100
=> creating model 'alexnet'

MODEL: AlexNet(
  (features): Sequential(
    (0): Conv2d(3, 64, kernel_size=(3, 3), stride=(1, 1), padding=(1, 1))
    (1): ReLU(inplace)
    (2): MaxPool2d(kernel_size=3, stride=2, padding=0, dilation=1, ceil_mode=True)
    (3): Conv2d(64, 192, kernel_size=(3, 3), stride=(1, 1), padding=(1, 1))
    (4): ReLU(inplace)
    (5): MaxPool2d(kernel_size=3, stride=2, padding=0, dilation=1, ceil_mode=True)
    (6): Conv2d(192, 384, kernel_size=(3, 3), stride=(1, 1), padding=(1, 1))
    (7): ReLU(inplace)
    (8): Conv2d(384, 256, kernel_size=(3, 3), stride=(1, 1), padding=(1, 1))
    (9): ReLU(inplace)
    (10): Conv2d(256, 256, kernel_size=(3, 3), stride=(1, 1), padding=(1, 1))
    (11): ReLU(inplace)
    (12): MaxPool2d(kernel_size=3, stride=2, padding=0, dilation=1, ceil_mode=True)
  )
  (classifier): Sequential(
    (0): Linear(in_features=4096, out_features=4096, bias=True)
    (1): BatchNorm1d(4096, eps=1e-05, momentum=0.1, affine=True, track_running_stats=True)
    (2): ReLU(inplace)
    (3): Linear(in_features=4096, out_features=4096, bias=True)
    (4): BatchNorm1d(4096, eps=1e-05, momentum=0.1, affine=True, track_running_stats=True)
    (5): ReLU(inplace)
    (6): Linear(in_features=4096, out_features=100, bias=True)
  )
)

################ TRAINING ################

######## EPOCH: 1 OF 150 ########

LEARNING RATE:	 0.05
Train Epoch: [1][16/391]	Data 0.125137	Time 0.173949	Loss 5.3609	Entropy 3.7265		Acc1 2.69	Acc5 9.67
Train Epoch: [1][32/391]	Data 0.101830	Time 0.164290	Loss 5.9697	Entropy 3.5899		Acc1 2.34	Acc5 10.06
Train Epoch: [1][48/391]	Data 0.000124	Time 0.151888	Loss 6.0286	Entropy 3.5525		Acc1 2.49	Acc5 10.55
…
                             Normalize(mean=(0.507, 0.486, 0.44), std=(0.267, 0.256, 0.276))
                         )
    Target Transforms (if any): None
LOGITS:		 torch.Size([10000, 100])
TARGETS:	 torch.Size([10000])
save artifacts/cifar100/alexnet/baseline/exec1/logits/best_model_test.pth


################ COMPUTING INFERENCE TIMES AND MODEL WEIGHTS, BIAS AND PARAMETERS ################

COMPUTING INFERENCE TIME: CPU

COMPUTING INFERENCE TIME: GPU

MEAN CPU INFERENCE TIME (MILISECONDS):	19.5260
MEAN GPU INFERENCE TIME (MILISECONDS):	0.3846

NUMBER OF WEIGHTS, BIAS AND PARAMETERS:
AlexNet (
  (features): Sequential (
    (0): Conv2d(3, 64, kernel_size=(3, 3), stride=(1, 1), padding=(1, 1)), weights=((64, 3, 3, 3), (64,)), parameters=1792
    (1): ReLU(inplace), weights=(), parameters=0
    (2): MaxPool2d(kernel_size=3, stride=2, padding=0, dilation=1, ceil_mode=True), weights=(), parameters=0
    (3): Conv2d(64, 192, kernel_size=(3, 3), stride=(1, 1), padding=(1, 1)), weights=((192, 64, 3, 3), (192,)), parameters=110784
    (4): ReLU(inplace), weights=(), parameters=0
    (5): MaxPool2d(kernel_size=3, stride=2, padding=0, dilation=1, ceil_mode=True), weights=(), parameters=0
    (6): Conv2d(192, 384, kernel_size=(3, 3), stride=(1, 1), padding=(1, 1)), weights=((384, 192, 3, 3), (384,)), parameters=663936
    (7): ReLU(inplace), weights=(), parameters=0
    (8): Conv2d(384, 256, kernel_size=(3, 3), stride=(1, 1), padding=(1, 1)), weights=((256, 384, 3, 3), (256,)), parameters=884992
    (9): ReLU(inplace), weights=(), parameters=0
    (10): Conv2d(256, 256, kernel_size=(3, 3), stride=(1, 1), padding=(1, 1)), weights=((256, 256, 3, 3), (256,)), parameters=590080
    (11): ReLU(inplace), weights=(), parameters=0
    (12): MaxPool2d(kernel_size=3, stride=2, padding=0, dilation=1, ceil_mode=True), weights=(), parameters=0
  ), weights=((64, 3, 3, 3), (64,), (192, 64, 3, 3), (192,), (384, 192, 3, 3), (384,), (256, 384, 3, 3), (256,), (256, 256, 3, 3), (256,)), parameters=2251584
  (classifier): Sequential (
    (0): Linear(in_features=4096, out_features=4096, bias=True), weights=((4096, 4096), (4096,)), parameters=16781312
    (1): BatchNorm1d(4096, eps=1e-05, momentum=0.1, affine=True, track_running_stats=True), weights=((4096,), (4096,)), parameters=8192
    (2): ReLU(inplace), weights=(), parameters=0
    (3): Linear(in_features=4096, out_features=4096, bias=True), weights=((4096, 4096), (4096,)), parameters=16781312
    (4): BatchNorm1d(4096, eps=1e-05, momentum=0.1, affine=True, track_running_stats=True), weights=((4096,), (4096,)), parameters=8192
    (5): ReLU(inplace), weights=(), parameters=0
    (6): Linear(in_features=4096, out_features=100, bias=True), weights=((100, 4096), (100,)), parameters=409700
  ), weights=((4096, 4096), (4096,), (4096,), (4096,), (4096, 4096), (4096,), (4096,), (4096,), (100, 4096), (100,)), parameters=33988708
) 


################ EXECUTION: 2 OF 5 ################
EXECUTION SEED: 1232

ARGUMENTS:  {'dataset_dir': None, 'executions': 5, 'dataset': 'cifar100', 'local_model
…
