…
regularization_type': None, 'regularization_value': 0, 'experiment_path': 'artifacts/cifar10/squeezemobnet/bsd~12340', 'execution': 1, 'execution_seed': 12341, 'number_of_dataset_classes': 10, 'normal_classes': [0, 1, 2, 3, 4, 5, 6, 7, 8, 9], 'execution_path': 'artifacts/cifar10/squeezemobnet/bsd~12340/exec1'}

$$$$$$$$$$$$$$$$$$$$$$$$$$$$$$$$$$$$$$$$$$$$$$$$$$$
TRAINSET LOADER SIZE: ====>>>>  50000
VALIDSET LOADER SIZE: ====>>>>  10000
$$$$$$$$$$$$$$$$$$$$$$$$$$$$$$$$$$$$$$$$$$$$$$$$$$$

DATASET: cifar10
=> creating model 'squeezemobnet'

MODEL: SqueezeMobNet(
  (features): Sequential(
    (0): Conv2d(3, 96, kernel_size=(3, 3), stride=(1, 1), padding=(1, 1))
    (1): ReLU(inplace)
    (2): MaxPool2d(kernel_size=2, stride=2, padding=0, dilation=1, ceil_mode=True)
    (3): Fire(
      (group1): Sequential(
        (squeeze): Conv2d(96, 32, kernel_size=(1, 1), stride=(1, 1))
        (BatchNorm): BatchNorm2d(32, eps=1e-05, momentum=0.1, affine=True, track_running_stats=True)
        (squeeze_activation): ReLU(inplace)
      )
      (group2): Sequential(
        (expand1x1): Conv2d(32, 64, kernel_size=(1, 1), stride=(1, 1))
        (BatchNorm): BatchNorm2d(64, eps=1e-05, momentum=0.1, affine=True, track_running_stats=True)
        (expand1x1_activation): ReLU(inplace)
      )
      (group3): Sequential(
        (expand3x3): Block(
          (mob): Sequential(
            (pointwise): Conv2d(32, 32, kernel_size=(3, 3), stride=(1, 1), padding=(1, 1), groups=32, bias=False)
            (activation): ReLU(inplace)
            (depthwise): Conv2d(32, 64, kernel_size=(1, 1), stride=(1, 1), bias=False)
            (BatchNorm): BatchNorm2d(64, eps=1e-05, momentum=0.1, affine=True, track_running_stats=True)
          )
        )
      )
    )
    (4): Fire(
      (group1): Sequential(
        (squeeze): Conv2d(128, 16, kernel_size=(1, 1), stride=(1, 1))
        (BatchNorm): BatchNorm2d(16, eps=1e-05, momentum=0.1, affine=True, track_running_stats=True)
        (squeeze_activation): ReLU(inplace)
      )
      (group2): Sequential(
        (expand1x1): Conv2d(16, 64, kernel_size=(1, 1), stride=(1, 1))
        (BatchNorm): BatchNorm2d(64, eps=1e-05, momentum=0.1, affine=True, track_running_stats=True)
        (expand1x1_activation): ReLU(inplace)
      )
      (group3): Sequential(
        (expand3x3): Block(
          (mob): Sequential(
            (pointwise): Conv2d(16, 16, kernel_size=(3, 3), stride=(1, 1), padding=(1, 1), groups=16, bias=False)
            (activation): ReLU(inplace)
            (depthwise): Conv2d(16, 64, kernel_size=(1, 1), stride=(1, 1), bias=False)
            (BatchNorm): BatchNorm2d(64, eps=1e-05, momentum=0.1, affine=True, track_running_stats=True)
          )
        )
      )
    )
    (5): Fire(
      (group1): Sequential(
        (squeeze): Conv2d(128, 32, kernel_size=(1, 1), stride=(1, 1))
        (BatchNorm): BatchNorm2d(32, eps=1e-05, momentum=0.1, affine=True, track_running_stats=True)
        (squeeze_activation): ReLU(inplace)
      )
      (group2): Sequential(
        (expand1x1): Conv2d(32, 128, kernel_size=(1, 1), stride=(1, 1))
        (BatchNorm): BatchNorm2d(128, eps=1e-05, momentum=0.1, affine=True, track_running_stats=True)
        (expand1x1_activation): ReLU(inplace)
      )
      (group3): Sequential(
        (expand3x3): Block(
          (mob): Sequential(
            (pointwise): Conv2d(32, 32, kernel_size=(3, 3), stride=(1, 1), padding=(1, 1), groups=32, bias=False)
            (activation): ReLU(inplace)
            (depthwise): Conv2d(32, 128, kernel_size=(1, 1), stride=(1, 1), bias=False)
            (BatchNorm): BatchNorm2d(128, eps=1e-05, momentum=0.1, affine=True, track_running_stats=True)
          )
        )
      )
    )
    (6): Fire(
      (group1): Sequential(
        (squeeze): Conv2d(256, 32, kernel_size=(1, 1), stride=(1, 1))
        (BatchNorm): BatchNorm2d(32, eps=1e-05, momentum=0.1, affine=True, track_running_stats=True)
        (squeeze_activation): ReLU(inplace)
      )
      (group2): Sequential(
        (expand1x1): Conv2d(32, 128, kernel_size=(1, 1), stride=(1, 1))
        (BatchNorm): BatchNorm2d(128, eps=1e-05, momentum=0.1, affine=True, track_running_stats=True)
        (expand1x1_activation): ReLU(inplace)
      )
      (group3): Sequential(
        (expand3x3): Block(
          (mob): Sequential(
            (pointwise): Conv2d(32, 32, kernel_size=(3, 3), stride=(1, 1), padding=(1, 1), groups=32, bias=False)
            (activation): ReLU(inplace)
            (depthwise): Conv2d(32, 128, kernel_size=(1, 1), stride=(1, 1), bias=False)
            (BatchNorm): BatchNorm2d(128, eps=1e-05, momentum=0.1, affine=True, track_running_stats=True)
          )
        )
      )
    )
    (7): MaxPool2d(kernel_size=2, stride=2, padding=0, dilation=1, ceil_mode=True)
    (8): Fire(
      (group1): Sequential(
        (squeeze): Conv2d(256, 48, kernel_size=(1, 1), stride=(1, 1))
        (BatchNorm): BatchNorm2d(48, eps=1e-05, momentum=0.1, affine=True, track_running_stats=True)
        (squeeze_activation): ReLU(inplace)
      )
      (group2): Sequential(
        (expand1x1): Conv2d(48, 192, kernel_size=(1, 1), stride=(1, 1))
        (BatchNorm): BatchNorm2d(192, eps=1e-05, momentum=0.1, affine=True, track_running_stats=True)
        (expand1x1_activation): ReLU(inplace)
      )
      (group3): Sequential(
        (expand3x3): Block(
          (mob): Sequential(
            (pointwise): Conv2d(48, 48, kernel_size=(3, 3), stride=(1, 1), padding=(1, 1), groups=48, bias=False)
            (activation): ReLU(inplace)
            (depthwise): Conv2d(48, 192, kernel_size=(1, 1), stride=(1, 1), bias=False)
            (BatchNorm): BatchNorm2d(192, eps=1e-05, momentum=0.1, affine=True, track_running_stats=True)
          )
        )
      )
    )
    (9): Fire(
      (group1): Sequential(
        (squeeze): Conv2d(384, 48, kernel_size=(1, 1), stride=(1, 1))
        (BatchNorm): BatchNorm2d(48, eps=1e-05, momentum=0.1, affine=True, track_running_stats=True)
        (squeeze_activation): ReLU(inplace)
      )
      (group2): Sequential(
        (expand1x1): Conv2d(48, 192, kernel_size=(1, 1), stride=(1, 1))
        (BatchNorm): BatchNorm2d(192, eps=1e-05, momentum=0.1, affine=True, track_running_stats=True)
        (expand1x1_activation): ReLU(inplace)
      )
      (group3): Sequential(
        (expand3x3): Block(
          (mob): Sequential(
            (pointwise): Conv2d(48, 48, kernel_size=(3, 3), stride=(1, 1), padding=(1, 1), groups=48, bias=False)
            (activation): ReLU(inplace)
            (depthwise): Conv2d(48, 192, kernel_size=(1, 1), stride=(1, 1), bias=False)
            (BatchNorm): BatchNorm2d(192, eps=1e-05, momentum=0.1, affine=True, track_running_stats=True)
          )
        )
      )
    )
    (10): Fire(
      (group1): Sequential(
        (squeeze): Conv2d(384, 64, kernel_size=(1, 1), stride=(1, 1))
        (BatchNorm): BatchNorm2d(64, eps=1e-05, momentum=0.1, affine=True, track_running_stats=True)
        (squeeze_activation): ReLU(inplace)
      )
      (group2): Sequential(
        (expand1x1): Conv2d(64, 256, kernel_size=(1, 1), stride=(1, 1))
        (BatchNorm): BatchNorm2d(256, eps=1e-05, momentum=0.1, affine=True, track_running_stats=True)
        (expand1x1_activation): ReLU(inplace)
      )
      (group3): Sequential(
        (expand3x3): Block(
          (mob): Sequential(
            (pointwise): Conv2d(64, 64, kernel_size=(3, 3), stride=(1, 1), padding=(1, 1), groups=64, bias=False)
            (activation): ReLU(inplace)
            (depthwise): Conv2d(64, 256, kernel_size=(1, 1), stride=(1, 1), bias=False)
            (BatchNorm): BatchNorm2d(256, eps=1e-05, momentum=0.1, affine=True, track_running_stats=True)
          )
        )
      )
    )
    (11): MaxPool2d(kernel_size=2, stride=2, padding=0, dilation=1, ceil_mode=True)
    (12): Fire(
      (group1): Sequential(
        (squeeze): Conv2d(512, 64, kernel_size=(1, 1), stride=(1, 1))
        (BatchNorm): BatchNorm2d(64, eps=1e-05, momentum=0.1, affine=True, track_running_stats=True)
        (squeeze_activation): ReLU(inplace)
      )
      (group2): Sequential(
        (expand1x1): Conv2d(64, 256, kernel_size=(1, 1), stride=(1, 1))
        (BatchNorm): BatchNorm2d(256, eps=1e-05, momentum=0.1, affine=True, track_running_stats=True)
        (expand1x1_activation): ReLU(inplace)
      )
      (group3): Sequential(
        (expand3x3): Block(
          (mob): Sequential(
            (pointwise): Conv2d(64, 64, kernel_size=(3, 3), stride=(1, 1), padding=(1, 1), groups=64, bias=False)
            (activation): ReLU(inplace)
            (depthwise): Conv2d(64, 256, kernel_size=(1, 1), stride=(1, 1), bias=False)
            (BatchNorm): BatchNorm2d(256, eps=1e-05, momentum=0.1, affine=True, track_running_stats=True)
          )
        )
      )
    )
  )
  (classifier): Sequential(
    (0): Conv2d(512, 10, kernel_size=(1, 1), stride=(1, 1))
    (1): BatchNorm2d(10, eps=1e-05, momentum=0.1, affine=True, track_running_stats=True)
    (2): ReLU(inplace)
    (3): AvgPool2d(kernel_size=4, stride=4, padding=0)
  )
)

################ TRAINING ################

######## EPOCH: 1 OF 150 ########

LEARNING RATE:	 0.05
Train Epoch: [1][16/391]	Data 0.000328	Time 0.144054	Loss 2.2370	Entropy 2.2721		Acc1 17.24	Acc5 63.82
Train Epoch: [1][32/391]	Data 0.000125	Time 0.144656	Loss 2.1788	Entropy 2.2546		Acc1 20.87	Acc5 69.58
…
