…
umber_of_model_classes': 1000, 'regularization_type': None, 'regularization_value': 0, 'experiment_path': 'artifacts/imagenet2012/squeezemobnet1_0/bsd~1230', 'execution': 1, 'execution_seed': 1231, 'number_of_dataset_classes': 1000, 'execution_path': 'artifacts/imagenet2012/squeezemobnet1_0/bsd~1230/exec1'}

$$$$$$$$$$$$$$$$$$$$$$$$$$$$$$$$$$$$$$$$$$$$$$$$$$$
TRAINSET LOADER SIZE: ====>>>>  1281167
VALIDSET LOADER SIZE: ====>>>>  50000
$$$$$$$$$$$$$$$$$$$$$$$$$$$$$$$$$$$$$$$$$$$$$$$$$$$

DATASET: imagenet2012
=> creating model 'squeezemobnet1_0'
SqueezeMobNet_(
  (features): Sequential(
    (0): Conv2d(3, 96, kernel_size=(7, 7), stride=(2, 2))
    (1): ReLU(inplace)
    (2): MaxPool2d(kernel_size=3, stride=2, padding=0, dilation=1, ceil_mode=True)
    (3): Fire_(
      (group1): Sequential(
        (squeeze): Conv2d(96, 16, kernel_size=(1, 1), stride=(1, 1))
        (BatchNorm): BatchNorm2d(16, eps=1e-05, momentum=0.1, affine=True, track_running_stats=True)
        (squeeze_activation): ReLU(inplace)
      )
      (group2): Sequential(
        (expand1x1): Conv2d(16, 64, kernel_size=(1, 1), stride=(1, 1))
        (BatchNorm): BatchNorm2d(64, eps=1e-05, momentum=0.1, affine=True, track_running_stats=True)
        (expand1x1_activation): ReLU(inplace)
      )
      (group3): Sequential(
        (expand3x3): Block_(
          (mob): Sequential(
            (pointwise): Conv2d(16, 16, kernel_size=(3, 3), stride=(1, 1), padding=(1, 1), groups=16, bias=False)
            (activation): ReLU(inplace)
            (depthwise): Conv2d(16, 64, kernel_size=(1, 1), stride=(1, 1), bias=False)
            (BatchNorm): BatchNorm2d(64, eps=1e-05, momentum=0.1, affine=True, track_running_stats=True)
          )
        )
      )
    )
    (4): Fire_(
      (group1): Sequential(
        (squeeze): Conv2d(128, 16, kernel_size=(1, 1), stride=(1, 1))
        (BatchNorm): BatchNorm2d(16, eps=1e-05, momentum=0.1, affine=True, track_running_stats=True)
        (squeeze_activation): ReLU(inplace)
      )
      (group2): Sequential(
        (expand1x1): Conv2d(16, 64, kernel_size=(1, 1), stride=(1, 1))
        (BatchNorm): BatchNorm2d(64, eps=1e-05, momentum=0.1, affine=True, track_running_stats=True)
        (expand1x1_activation): ReLU(inplace)
      )
      (group3): Sequential(
        (expand3x3): Block_(
          (mob): Sequential(
            (pointwise): Conv2d(16, 16, kernel_size=(3, 3), stride=(1, 1), padding=(1, 1), groups=16, bias=False)
            (activation): ReLU(inplace)
            (depthwise): Conv2d(16, 64, kernel_size=(1, 1), stride=(1, 1), bias=False)
            (BatchNorm): BatchNorm2d(64, eps=1e-05, momentum=0.1, affine=True, track_running_stats=True)
          )
        )
      )
    )
    (5): Fire_(
      (group1): Sequential(
        (squeeze): Conv2d(128, 32, kernel_size=(1, 1), stride=(1, 1))
        (BatchNorm): BatchNorm2d(32, eps=1e-05, momentum=0.1, affine=True, track_running_stats=True)
        (squeeze_activation): ReLU(inplace)
      )
      (group2): Sequential(
        (expand1x1): Conv2d(32, 128, kernel_size=(1, 1), stride=(1, 1))
        (BatchNorm): BatchNorm2d(128, eps=1e-05, momentum=0.1, affine=True, track_running_stats=True)
        (expand1x1_activation): ReLU(inplace)
      )
      (group3): Sequential(
        (expand3x3): Block_(
          (mob): Sequential(
            (pointwise): Conv2d(32, 32, kernel_size=(3, 3), stride=(1, 1), padding=(1, 1), groups=32, bias=False)
            (activation): ReLU(inplace)
            (depthwise): Conv2d(32, 128, kernel_size=(1, 1), stride=(1, 1), bias=False)
            (BatchNorm): BatchNorm2d(128, eps=1e-05, momentum=0.1, affine=True, track_running_stats=True)
          )
        )
      )
    )
    (6): MaxPool2d(kernel_size=3, stride=2, padding=0, dilation=1, ceil_mode=True)
    (7): Fire_(
      (group1): Sequential(
        (squeeze): Conv2d(256, 32, kernel_size=(1, 1), stride=(1, 1))
        (BatchNorm): BatchNorm2d(32, eps=1e-05, momentum=0.1, affine=True, track_running_stats=True)
        (squeeze_activation): ReLU(inplace)
      )
      (group2): Sequential(
        (expand1x1): Conv2d(32, 128, kernel_size=(1, 1), stride=(1, 1))
        (BatchNorm): BatchNorm2d(128, eps=1e-05, momentum=0.1, affine=True, track_running_stats=True)
        (expand1x1_activation): ReLU(inplace)
      )
      (group3): Sequential(
        (expand3x3): Block_(
          (mob): Sequential(
            (pointwise): Conv2d(32, 32, kernel_size=(3, 3), stride=(1, 1), padding=(1, 1), groups=32, bias=False)
            (activation): ReLU(inplace)
            (depthwise): Conv2d(32, 128, kernel_size=(1, 1), stride=(1, 1), bias=False)
            (BatchNorm): BatchNorm2d(128, eps=1e-05, momentum=0.1, affine=True, track_running_stats=True)
          )
        )
      )
    )
    (8): Fire_(
      (group1): Sequential(
        (squeeze): Conv2d(256, 48, kernel_size=(1, 1), stride=(1, 1))
        (BatchNorm): BatchNorm2d(48, eps=1e-05, momentum=0.1, affine=True, track_running_stats=True)
        (squeeze_activation): ReLU(inplace)
      )
      (group2): Sequential(
        (expand1x1): Conv2d(48, 192, kernel_size=(1, 1), stride=(1, 1))
        (BatchNorm): BatchNorm2d(192, eps=1e-05, momentum=0.1, affine=True, track_running_stats=True)
        (expand1x1_activation): ReLU(inplace)
      )
      (group3): Sequential(
        (expand3x3): Block_(
          (mob): Sequential(
            (pointwise): Conv2d(48, 48, kernel_size=(3, 3), stride=(1, 1), padding=(1, 1), groups=48, bias=False)
            (activation): ReLU(inplace)
            (depthwise): Conv2d(48, 192, kernel_size=(1, 1), stride=(1, 1), bias=False)
            (BatchNorm): BatchNorm2d(192, eps=1e-05, momentum=0.1, affine=True, track_running_stats=True)
          )
        )
      )
    )
    (9): Fire_(
      (group1): Sequential(
        (squeeze): Conv2d(384, 48, kernel_size=(1, 1), stride=(1, 1))
        (BatchNorm): BatchNorm2d(48, eps=1e-05, momentum=0.1, affine=True, track_running_stats=True)
        (squeeze_activation): ReLU(inplace)
      )
      (group2): Sequential(
        (expand1x1): Conv2d(48, 192, kernel_size=(1, 1), stride=(1, 1))
        (BatchNorm): BatchNorm2d(192, eps=1e-05, momentum=0.1, affine=True, track_running_stats=True)
        (expand1x1_activation): ReLU(inplace)
      )
      (group3): Sequential(
        (expand3x3): Block_(
          (mob): Sequential(
            (pointwise): Conv2d(48, 48, kernel_size=(3, 3), stride=(1, 1), padding=(1, 1), groups=48, bias=False)
            (activation): ReLU(inplace)
            (depthwise): Conv2d(48, 192, kernel_size=(1, 1), stride=(1, 1), bias=False)
            (BatchNorm): BatchNorm2d(192, eps=1e-05, momentum=0.1, affine=True, track_running_stats=True)
          )
        )
      )
    )
    (10): Fire_(
      (group1): Sequential(
        (squeeze): Conv2d(384, 64, kernel_size=(1, 1), stride=(1, 1))
        (BatchNorm): BatchNorm2d(64, eps=1e-05, momentum=0.1, affine=True, track_running_stats=True)
        (squeeze_activation): ReLU(inplace)
      )
      (group2): Sequential(
        (expand1x1): Conv2d(64, 256, kernel_size=(1, 1), stride=(1, 1))
        (BatchNorm): BatchNorm2d(256, eps=1e-05, momentum=0.1, affine=True, track_running_stats=True)
        (expand1x1_activation): ReLU(inplace)
      )
      (group3): Sequential(
        (expand3x3): Block_(
          (mob): Sequential(
            (pointwise): Conv2d(64, 64, kernel_size=(3, 3), stride=(1, 1), padding=(1, 1), groups=64, bias=False)
            (activation): ReLU(inplace)
            (depthwise): Conv2d(64, 256, kernel_size=(1, 1), stride=(1, 1), bias=False)
            (BatchNorm): BatchNorm2d(256, eps=1e-05, momentum=0.1, affine=True, track_running_stats=True)
          )
        )
      )
    )
    (11): MaxPool2d(kernel_size=3, stride=2, padding=0, dilation=1, ceil_mode=True)
    (12): Fire_(
      (group1): Sequential(
        (squeeze): Conv2d(512, 64, kernel_size=(1, 1), stride=(1, 1))
        (BatchNorm): BatchNorm2d(64, eps=1e-05, momentum=0.1, affine=True, track_running_stats=True)
        (squeeze_activation): ReLU(inplace)
      )
      (group2): Sequential(
        (expand1x1): Conv2d(64, 256, kernel_size=(1, 1), stride=(1, 1))
        (BatchNorm): BatchNorm2d(256, eps=1e-05, momentum=0.1, affine=True, track_running_stats=True)
        (expand1x1_activation): ReLU(inplace)
      )
      (group3): Sequential(
        (expand3x3): Block_(
          (mob): Sequential(
            (pointwise): Conv2d(64, 64, kernel_size=(3, 3), stride=(1, 1), padding=(1, 1), groups=64, bias=False)
            (activation): ReLU(inplace)
            (depthwise): Conv2d(64, 256, kernel_size=(1, 1), stride=(1, 1), bias=False)
            (BatchNorm): BatchNorm2d(256, eps=1e-05, momentum=0.1, affine=True, track_running_stats=True)
          )
        )
      )
    )
  )
  (classifier): Sequential(
    (0): Conv2d(512, 1000, kernel_size=(1, 1), stride=(1, 1))
    (1): BatchNorm2d(1000, eps=1e-05, momentum=0.1, affine=True, track_running_stats=True)
    (2): ReLU(inplace)
    (3): AvgPool2d(kernel_size=13, stride=1, padding=0)
  )
)

MODEL: SqueezeMobNet_(
  (features): Sequential(
    (0): Conv2d(3, 96, kernel_size=(7, 7), stride=(2, 2))
    (1): ReLU(inplace)
    (2): MaxPool2d(kernel_size=3, stride=2, padding=0, dilation=1, ceil_mode=True)
    (3): Fire_(
      (group1): Sequential(
        (squeeze): Conv2d(96, 16, kernel_size=(1, 1), stride=(1, 1))
        (BatchNorm): BatchNorm2d(16, eps=1e-05, momentum=0.1, affine=True, track_running_stats=True)
        (squeeze_activation): ReLU(inplace)
      )
      (group2): Sequential(
        (expand1x1): Conv2d(16, 64, kernel_size=(1, 1), stride=(1, 1))
        (BatchNorm): BatchNorm2d(64, eps=1e-05, momentum=0.1, affine=True, track_running_stats=True)
        (expand1x1_activation): ReLU(inplace)
      )
      (group3): Sequential(
        (expand3x3): Block_(
          (mob): Sequential(
            (pointwise): Conv2d(16, 16, kernel_size=(3, 3), stride=(1, 1), padding=(1, 1), groups=16, bias=False)
            (activation): ReLU(inplace)
            (depthwise): Conv2d(16, 64, kernel_size=(1, 1), stride=(1, 1), bias=False)
            (BatchNorm): BatchNorm2d(64, eps=1e-05, momentum=0.1, affine=True, track_running_stats=True)
          )
        )
      )
    )
    (4): Fire_(
      (group1): Sequential(
        (squeeze): Conv2d(128, 16, kernel_size=(1, 1), stride=(1, 1))
        (BatchNorm): BatchNorm2d(16, eps=1e-05, momentum=0.1, affine=True, track_running_stats=True)
        (squeeze_activation): ReLU(inplace)
      )
      (group2): Sequential(
        (expand1x1): Conv2d(16, 64, kernel_size=(1, 1), stride=(1, 1))
        (BatchNorm): BatchNorm2d(64, eps=1e-05, momentum=0.1, affine=True, track_running_stats=True)
        (expand1x1_activation): ReLU(inplace)
      )
      (group3): Sequential(
        (expand3x3): Block_(
          (mob): Sequential(
            (pointwise): Conv2d(16, 16, kernel_size=(3, 3), stride=(1, 1), padding=(1, 1), groups=16, bias=False)
            (activation): ReLU(inplace)
            (depthwise): Conv2d(16, 64, kernel_size=(1, 1), stride=(1, 1), bias=False)
            (BatchNorm): BatchNorm2d(64, eps=1e-05, momentum=0.1, affine=True, track_running_stats=True)
          )
        )
      )
    )
    (5): Fire_(
      (group1): Sequential(
        (squeeze): Conv2d(128, 32, kernel_size=(1, 1), stride=(1, 1))
        (BatchNorm): BatchNorm2d(32, eps=1e-05, momentum=0.1, affine=True, track_running_stats=True)
        (squeeze_activation): ReLU(inplace)
      )
      (group2): Sequential(
        (expand1x1): Conv2d(32, 128, kernel_size=(1, 1), stride=(1, 1))
        (BatchNorm): BatchNorm2d(128, eps=1e-05, momentum=0.1, affine=True, track_running_stats=True)
        (expand1x1_activation): ReLU(inplace)
      )
      (group3): Sequential(
        (expand3x3): Block_(
          (mob): Sequential(
            (pointwise): Conv2d(32, 32, kernel_size=(3, 3), stride=(1, 1), padding=(1, 1), groups=32, bias=False)
            (activation): ReLU(inplace)
            (depthwise): Conv2d(32, 128, kernel_size=(1, 1), stride=(1, 1), bias=False)
            (BatchNorm): BatchNorm2d(128, eps=1e-05, momentum=0.1, affine=True, track_running_stats=True)
          )
        )
      )
    )
    (6): MaxPool2d(kernel_size=3, stride=2, padding=0, dilation=1, ceil_mode=True)
    (7): Fire_(
      (group1): Sequential(
        (squeeze): Conv2d(256, 32, kernel_size=(1, 1), stride=(1, 1))
        (BatchNorm): BatchNorm2d(32, eps=1e-05, momentum=0.1, affine=True, track_running_stats=True)
        (squeeze_activation): ReLU(inplace)
      )
      (group2): Sequential(
        (expand1x1): Conv2d(32, 128, kernel_size=(1, 1), stride=(1, 1))
        (BatchNorm): BatchNorm2d(128, eps=1e-05, momentum=0.1, affine=True, track_running_stats=True)
        (expand1x1_activation): ReLU(inplace)
      )
      (group3): Sequential(
        (expand3x3): Block_(
          (mob): Sequential(
            (pointwise): Conv2d(32, 32, kernel_size=(3, 3), stride=(1, 1), padding=(1, 1), groups=32, bias=False)
            (activation): ReLU(inplace)
            (depthwise): Conv2d(32, 128, kernel_size=(1, 1), stride=(1, 1), bias=False)
            (BatchNorm): BatchNorm2d(128, eps=1e-05, momentum=0.1, affine=True, track_running_stats=True)
          )
        )
      )
    )
    (8): Fire_(
      (group1): Sequential(
        (squeeze): Conv2d(256, 48, kernel_size=(1, 1), stride=(1, 1))
        (BatchNorm): BatchNorm2d(48, eps=1e-05, momentum=0.1, affine=True, track_running_stats=True)
        (squeeze_activation): ReLU(inplace)
      )
      (group2): Sequential(
        (expand1x1): Conv2d(48, 192, kernel_size=(1, 1), stride=(1, 1))
        (BatchNorm): BatchNorm2d(192, eps=1e-05, momentum=0.1, affine=True, track_running_stats=True)
        (expand1x1_activation): ReLU(inplace)
      )
      (group3): Sequential(
        (expand3x3): Block_(
          (mob): Sequential(
            (pointwise): Conv2d(48, 48, kernel_size=(3, 3), stride=(1, 1), padding=(1, 1), groups=48, bias=False)
            (activation): ReLU(inplace)
            (depthwise): Conv2d(48, 192, kernel_size=(1, 1), stride=(1, 1), bias=False)
            (BatchNorm): BatchNorm2d(192, eps=1e-05, momentum=0.1, affine=True, track_running_stats=True)
          )
        )
      )
    )
    (9): Fire_(
      (group1): Sequential(
        (squeeze): Conv2d(384, 48, kernel_size=(1, 1), stride=(1, 1))
        (BatchNorm): BatchNorm2d(48, eps=1e-05, momentum=0.1, affine=True, track_running_stats=True)
        (squeeze_activation): ReLU(inplace)
      )
      (group2): Sequential(
        (expand1x1): Conv2d(48, 192, kernel_size=(1, 1), stride=(1, 1))
        (BatchNorm): BatchNorm2d(192, eps=1e-05, momentum=0.1, affine=True, track_running_stats=True)
        (expand1x1_activation): ReLU(inplace)
      )
      (group3): Sequential(
        (expand3x3): Block_(
          (mob): Sequential(
            (pointwise): Conv2d(48, 48, kernel_size=(3, 3), stride=(1, 1), padding=(1, 1), groups=48, bias=False)
            (activation): ReLU(inplace)
            (depthwise): Conv2d(48, 192, kernel_size=(1, 1), stride=(1, 1), bias=False)
            (BatchNorm): BatchNorm2d(192, eps=1e-05, momentum=0.1, affine=True, track_running_stats=True)
          )
        )
      )
    )
    (10): Fire_(
      (group1): Sequential(
        (squeeze): Conv2d(384, 64, kernel_size=(1, 1), stride=(1, 1))
        (BatchNorm): BatchNorm2d(64, eps=1e-05, momentum=0.1, affine=True, track_running_stats=True)
        (squeeze_activation): ReLU(inplace)
      )
      (group2): Sequential(
        (expand1x1): Conv2d(64, 256, kernel_size=(1, 1), stride=(1, 1))
        (BatchNorm): BatchNorm2d(256, eps=1e-05, momentum=0.1, affine=True, track_running_stats=True)
        (expand1x1_activation): ReLU(inplace)
      )
      (group3): Sequential(
        (expand3x3): Block_(
          (mob): Sequential(
            (pointwise): Conv2d(64, 64, kernel_size=(3, 3), stride=(1, 1), padding=(1, 1), groups=64, bias=False)
            (activation): ReLU(inplace)
            (depthwise): Conv2d(64, 256, kernel_size=(1, 1), stride=(1, 1), bias=False)
            (BatchNorm): BatchNorm2d(256, eps=1e-05, momentum=0.1, affine=True, track_running_stats=True)
          )
        )
      )
    )
    (11): MaxPool2d(kernel_size=3, stride=2, padding=0, dilation=1, ceil_mode=True)
    (12): Fire_(
      (group1): Sequential(
        (squeeze): Conv2d(512, 64, kernel_size=(1, 1), stride=(1, 1))
        (BatchNorm): BatchNorm2d(64, eps=1e-05, momentum=0.1, affine=True, track_running_stats=True)
        (squeeze_activation): ReLU(inplace)
      )
      (group2): Sequential(
        (expand1x1): Conv2d(64, 256, kernel_size=(1, 1), stride=(1, 1))
        (BatchNorm): BatchNorm2d(256, eps=1e-05, momentum=0.1, affine=True, track_running_stats=True)
        (expand1x1_activation): ReLU(inplace)
      )
      (group3): Sequential(
        (expand3x3): Block_(
          (mob): Sequential(
            (pointwise): Conv2d(64, 64, kernel_size=(3, 3), stride=(1, 1), padding=(1, 1), groups=64, bias=False)
            (activation): ReLU(inplace)
            (depthwise): Conv2d(64, 256, kernel_size=(1, 1), stride=(1, 1), bias=False)
            (BatchNorm): BatchNorm2d(256, eps=1e-05, momentum=0.1, affine=True, track_running_stats=True)
          )
        )
      )
    )
  )
  (classifier): Sequential(
    (0): Conv2d(512, 1000, kernel_size=(1, 1), stride=(1, 1))
    (1): BatchNorm2d(1000, eps=1e-05, momentum=0.1, affine=True, track_running_stats=True)
    (2): ReLU(inplace)
    (3): AvgPool2d(kernel_size=13, stride=1, padding=0)
  )
)

################ TRAINING ################

######## EPOCH: 1 OF 2 ########

LEARNING RATE:	 0.1
Train Epoch: [1][16/10010]	Data 0.009081	Time 0.384302	Loss 6.9141	Entropy 6.8914		Acc1 0.10	Acc5 0.63
Train Epoch: [1][32/10010]	Data 0.010369	Time 0.409594	Loss 6.9083	Entropy 6.8882		Acc1 0.17	Acc5 0.78
…
 [0.0000 0.0000 0.0000 ... 0.0000 0.0000 0.0000]
 [0.0000 0.0000 0.0000 ... 0.0000 0.0000 0.0000]]

#### VALID: 4.546

!+NEW BEST+ 4.546 IN EPOCH 2!!! SAVING... artifacts/imagenet2012/squeezemobnet1_0/bsd~1230/exec1/best_model.pth.tar

!$$$$ BEST: 4.546


################ COMPUTING INFERENCE TIMES AND MODEL WEIGHTS, BIAS AND PARAMETERS ################

COMPUTING INFERENCE TIME: CPU

COMPUTING INFERENCE TIME: GPU

MEAN CPU INFERENCE TIME (MILISECONDS):	38.1081
MEAN GPU INFERENCE TIME (MILISECONDS):	2.3478

NUMBER OF WEIGHTS, BIAS AND PARAMETERS:
SqueezeMobNet_ (
  (features): Sequential (
    (0): Conv2d(3, 96, kernel_size=(7, 7), stride=(2, 2)), weights=((96, 3, 7, 7), (96,)), parameters=14208
    (1): ReLU(inplace), weights=(), parameters=0
    (2): MaxPool2d(kernel_size=3, stride=2, padding=0, dilation=1, ceil_mode=True), weights=(), parameters=0
    (3): Fire_(
      (group1): Sequential(
        (squeeze): Conv2d(96, 16, kernel_size=(1, 1), stride=(1, 1))
        (BatchNorm): BatchNorm2d(16, eps=1e-05, momentum=0.1, affine=True, track_running_stats=True)
        (squeeze_activation): ReLU(inplace)
      )
      (group2): Sequential(
        (expand1x1): Conv2d(16, 64, kernel_size=(1, 1), stride=(1, 1))
        (BatchNorm): BatchNorm2d(64, eps=1e-05, momentum=0.1, affine=True, track_running_stats=True)
        (expand1x1_activation): ReLU(inplace)
      )
      (group3): Sequential(
        (expand3x3): Block_(
          (mob): Sequential(
            (pointwise): Conv2d(16, 16, kernel_size=(3, 3), stride=(1, 1), padding=(1, 1), groups=16, bias=False)
            (activation): ReLU(inplace)
            (depthwise): Conv2d(16, 64, kernel_size=(1, 1), stride=(1, 1), bias=False)
            (BatchNorm): BatchNorm2d(64, eps=1e-05, momentum=0.1, affine=True, track_running_stats=True)
          )
        )
      )
    ), weights=((16, 96, 1, 1), (16,), (16,), (16,), (64, 16, 1, 1), (64,), (64,), (64,), (16, 1, 3, 3), (64, 16, 1, 1), (64,), (64,)), parameters=4096
    (4): Fire_(
      (group1): Sequential(
        (squeeze): Conv2d(128, 16, kernel_size=(1, 1), stride=(1, 1))
        (BatchNorm): BatchNorm2d(16, eps=1e-05, momentum=0.1, affine=True, track_running_stats=True)
        (squeeze_activation): ReLU(inplace)
      )
      (group2): Sequential(
        (expand1x1): Conv2d(16, 64, kernel_size=(1, 1), stride=(1, 1))
        (BatchNorm): BatchNorm2d(64, eps=1e-05, momentum=0.1, affine=True, track_running_stats=True)
        (expand1x1_activation): ReLU(inplace)
      )
      (group3): Sequential(
        (expand3x3): Block_(
          (mob): Sequential(
            (pointwise): Conv2d(16, 16, kernel_size=(3, 3), stride=(1, 1), padding=(1, 1), groups=16, bias=False)
            (activation): ReLU(inplace)
            (depthwise): Conv2d(16, 64, kernel_size=(1, 1), stride=(1, 1), bias=False)
            (BatchNorm): BatchNorm2d(64, eps=1e-05, momentum=0.1, affine=True, track_running_stats=True)
          )
        )
      )
    ), weights=((16, 128, 1, 1), (16,), (16,), (16,), (64, 16, 1, 1), (64,), (64,), (64,), (16, 1, 3, 3), (64, 16, 1, 1), (64,), (64,)), parameters=4608
    (5): Fire_(
      (group1): Sequential(
        (squeeze): Conv2d(128, 32, kernel_size=(1, 1), stride=(1, 1))
        (BatchNorm): BatchNorm2d(32, eps=1e-05, momentum=0.1, affine=True, track_running_stats=True)
        (squeeze_activation): ReLU(inplace)
      )
      (group2): Sequential(
        (expand1x1): Conv2d(32, 128, kernel_size=(1, 1), stride=(1, 1))
        (BatchNorm): BatchNorm2d(128, eps=1e-05, momentum=0.1, affine=True, track_running_stats=True)
        (expand1x1_activation): ReLU(inplace)
      )
      (group3): Sequential(
        (expand3x3): Block_(
          (mob): Sequential(
            (pointwise): Conv2d(32, 32, kernel_size=(3, 3), stride=(1, 1), padding=(1, 1), groups=32, bias=False)
            (activation): ReLU(inplace)
            (depthwise): Conv2d(32, 128, kernel_size=(1, 1), stride=(1, 1), bias=False)
            (BatchNorm): BatchNorm2d(128, eps=1e-05, momentum=0.1, affine=True, track_running_stats=True)
          )
        )
      )
    ), weights=((32, 128, 1, 1), (32,), (32,), (32,), (128, 32, 1, 1), (128,), (128,), (128,), (32, 1, 3, 3), (128, 32, 1, 1), (128,), (128,)), parameters=13312
    (6): MaxPool2d(kernel_size=3, stride=2, padding=0, dilation=1, ceil_mode=True), weights=(), parameters=0
    (7): Fire_(
      (group1): Sequential(
        (squeeze): Conv2d(256, 32, kernel_size=(1, 1), stride=(1, 1))
        (BatchNorm): BatchNorm2d(32, eps=1e-05, momentum=0.1, affine=True, track_running_stats=True)
        (squeeze_activation): ReLU(inplace)
      )
      (group2): Sequential(
        (expand1x1): Conv2d(32, 128, kernel_size=(1, 1), stride=(1, 1))
        (BatchNorm): BatchNorm2d(128, eps=1e-05, momentum=0.1, affine=True, track_running_stats=True)
        (expand1x1_activation): ReLU(inplace)
      )
      (group3): Sequential(
        (expand3x3): Block_(
          (mob): Sequential(
            (pointwise): Conv2d(32, 32, kernel_size=(3, 3), stride=(1, 1), padding=(1, 1), groups=32, bias=False)
            (activation): ReLU(inplace)
            (depthwise): Conv2d(32, 128, kernel_size=(1, 1), stride=(1, 1), bias=False)
            (BatchNorm): BatchNorm2d(128, eps=1e-05, momentum=0.1, affine=True, track_running_stats=True)
          )
        )
      )
    ), weights=((32, 256, 1, 1), (32,), (32,), (32,), (128, 32, 1, 1), (128,), (128,), (128,), (32, 1, 3, 3), (128, 32, 1, 1), (128,), (128,)), parameters=17408
    (8): Fire_(
      (group1): Sequential(
        (squeeze): Conv2d(256, 48, kernel_size=(1, 1), stride=(1, 1))
        (BatchNorm): BatchNorm2d(48, eps=1e-05, momentum=0.1, affine=True, track_running_stats=True)
        (squeeze_activation): ReLU(inplace)
      )
      (group2): Sequential(
        (expand1x1): Conv2d(48, 192, kernel_size=(1, 1), stride=(1, 1))
        (BatchNorm): BatchNorm2d(192, eps=1e-05, momentum=0.1, affine=True, track_running_stats=True)
        (expand1x1_activation): ReLU(inplace)
      )
      (group3): Sequential(
        (expand3x3): Block_(
          (mob): Sequential(
            (pointwise): Conv2d(48, 48, kernel_size=(3, 3), stride=(1, 1), padding=(1, 1), groups=48, bias=False)
            (activation): ReLU(inplace)
            (depthwise): Conv2d(48, 192, kernel_size=(1, 1), stride=(1, 1), bias=False)
            (BatchNorm): BatchNorm2d(192, eps=1e-05, momentum=0.1, affine=True, track_running_stats=True)
          )
        )
      )
    ), weights=((48, 256, 1, 1), (48,), (48,), (48,), (192, 48, 1, 1), (192,), (192,), (192,), (48, 1, 3, 3), (192, 48, 1, 1), (192,), (192,)), parameters=32256
    (9): Fire_(
      (group1): Sequential(
        (squeeze): Conv2d(384, 48, kernel_size=(1, 1), stride=(1, 1))
        (BatchNorm): BatchNorm2d(48, eps=1e-05, momentum=0.1, affine=True, track_running_stats=True)
        (squeeze_activation): ReLU(inplace)
      )
      (group2): Sequential(
        (expand1x1): Conv2d(48, 192, kernel_size=(1, 1), stride=(1, 1))
        (BatchNorm): BatchNorm2d(192, eps=1e-05, momentum=0.1, affine=True, track_running_stats=True)
        (expand1x1_activation): ReLU(inplace)
      )
      (group3): Sequential(
        (expand3x3): Block_(
          (mob): Sequential(
            (pointwise): Conv2d(48, 48, kernel_size=(3, 3), stride=(1, 1), padding=(1, 1), groups=48, bias=False)
            (activation): ReLU(inplace)
            (depthwise): Conv2d(48, 192, kernel_size=(1, 1), stride=(1, 1), bias=False)
            (BatchNorm): BatchNorm2d(192, eps=1e-05, momentum=0.1, affine=True, track_running_stats=True)
          )
        )
      )
    ), weights=((48, 384, 1, 1), (48,), (48,), (48,), (192, 48, 1, 1), (192,), (192,), (192,), (48, 1, 3, 3), (192, 48, 1, 1), (192,), (192,)), parameters=38400
    (10): Fire_(
      (group1): Sequential(
        (squeeze): Conv2d(384, 64, kernel_size=(1, 1), stride=(1, 1))
        (BatchNorm): BatchNorm2d(64, eps=1e-05, momentum=0.1, affine=True, track_running_stats=True)
        (squeeze_activation): ReLU(inplace)
      )
      (group2): Sequential(
        (expand1x1): Conv2d(64, 256, kernel_size=(1, 1), stride=(1, 1))
        (BatchNorm): BatchNorm2d(256, eps=1e-05, momentum=0.1, affine=True, track_running_stats=True)
        (expand1x1_activation): ReLU(inplace)
      )
      (group3): Sequential(
        (expand3x3): Block_(
          (mob): Sequential(
            (pointwise): Conv2d(64, 64, kernel_size=(3, 3), stride=(1, 1), padding=(1, 1), groups=64, bias=False)
            (activation): ReLU(inplace)
            (depthwise): Conv2d(64, 256, kernel_size=(1, 1), stride=(1, 1), bias=False)
            (BatchNorm): BatchNorm2d(256, eps=1e-05, momentum=0.1, affine=True, track_running_stats=True)
          )
        )
      )
    ), weights=((64, 384, 1, 1), (64,), (64,), (64,), (256, 64, 1, 1), (256,), (256,), (256,), (64, 1, 3, 3), (256, 64, 1, 1), (256,), (256,)), parameters=59392
    (11): MaxPool2d(kernel_size=3, stride=2, padding=0, dilation=1, ceil_mode=True), weights=(), parameters=0
    (12): Fire_(
      (group1): Sequential(
        (squeeze): Conv2d(512, 64, kernel_size=(1, 1), stride=(1, 1))
        (BatchNorm): BatchNorm2d(64, eps=1e-05, momentum=0.1, affine=True, track_running_stats=True)
        (squeeze_activation): ReLU(inplace)
      )
      (group2): Sequential(
        (expand1x1): Conv2d(64, 256, kernel_size=(1, 1), stride=(1, 1))
        (BatchNorm): BatchNorm2d(256, eps=1e-05, momentum=0.1, affine=True, track_running_stats=True)
        (expand1x1_activation): ReLU(inplace)
      )
      (group3): Sequential(
        (expand3x3): Block_(
          (mob): Sequential(
            (pointwise): Conv2d(64, 64, kernel_size=(3, 3), stride=(1, 1), padding=(1, 1), groups=64, bias=False)
            (activation): ReLU(inplace)
            (depthwise): Conv2d(64, 256, kernel_size=(1, 1), stride=(1, 1), bias=False)
            (BatchNorm): BatchNorm2d(256, eps=1e-05, momentum=0.1, affine=True, track_running_stats=True)
          )
        )
      )
    ), weights=((64, 512, 1, 1), (64,), (64,), (64,), (256, 64, 1, 1), (256,), (256,), (256,), (64, 1, 3, 3), (256, 64, 1, 1), (256,), (256,)), parameters=67584
  ), weights=((96, 3, 7, 7), (96,), (16, 96, 1, 1), (16,), (16,), (16,), (64, 16, 1, 1), (64,), (64,), (64,), (16, 1, 3, 3), (64, 16, 1, 1),
…
